backend/ml_model/sensors/best_cnn_model.pth (torch, 904826 bytes, 16 tensors)

conv1.0.weight f4 [64, 11, 3]
-0.02978619 0.0595215 0.06779633 0.16482414 -0.17525046 0.011933009 0.088355824 0.13509516
-0.10112991 -0.008878827 -0.15605752 -0.14356643 0.1636698 -0.014399697 0.1029554 -0.07044107
0.149666 0.15219636 0.16028585 0.19665405 -0.09699796 0.03970725 0.14016952 -0.10960204
0.08575392 0.0559401 -0.10584456 -0.069008976 0.08437135 -0.10643353 -0.050560243 0.102651194
0.045799337 -0.14387742 -0.06428684 0.14562893 -0.029556457 0.13756138 0.0007630934 0.11581291
0.035595935 -0.07159882 -0.13170755 0.06260454 -0.096530005 -0.019006088 0.03640125 0.04933144
-0.13744687 0.019214397 -0.08185617 0.13716823 -0.111376695 0.0060056536 0.06256131 0.014494837
0.045921195 -0.03989594 0.026697116 0.08018854 0.20688571 -0.15880525 0.24167667 -0.078798026
0.1372928 0.17122425 0.13932368 -0.16747966 -0.086737536 0.09985315 0.15205896 0.0009179702
-0.12529738 0.0126479035 -0.0019142923 0.16019428 -0.064707994 0.14287223 -0.055394754 -0.2209609
0.021730706 -0.051485784 0.055668138 0.081213415 -0.008975458 -0.10859544 0.10015772 0.124621965
-0.16002388 0.13821504 0.12984361 -0.028376123 -0.08945606 0.20180579 -0.18789406 -0.14177993
0.09358786 -0.017650072 -0.037522536 -0.011460298 -0.009484501 0.13247466 -0.050243814 -0.13058344
-0.09122383 -0.017835047 -0.059181724 0.10743883 0.06070824 0.051028896 -0.1917579 0.15424803
0.020672178 0.068642266 -0.12741585 -0.09292144 0.060478516 -0.041133106 0.03834282 0.0077059087
0.046376973 0.12215618 -0.11426453 0.14722799 0.059465915 -0.04737993 0.12002682 0.108116485
-0.029927058 -0.1482158 -0.15035301 0.20998879 -0.038760487 -0.11768506 -0.015614556 -0.16094416
0.030496052 0.11347429 0.16103238 0.003106559 0.08091806 -0.05513403 -0.002218385 -0.0486356
-0.014569674 0.22010948 -0.17563318 -0.1470441 -0.031831883 0.008715525 -0.22442722 0.076749295
0.068539634 -0.17572019 -0.10938862 0.1196033 -0.049675927 -0.054934915 0.08268892 0.08380231
0.079543985 -0.0083667 -0.13524453 0.101787195 0.060156394 -0.18676825 0.067314535 -0.026222631
-0.03762239 -0.053272095 0.14933443 0.1458153 -0.085593626 -0.04241172 0.084871426 -0.098387696
-0.10845898 -0.083506584 0.0034858203 0.13255186 0.08931768 -0.15246539 0.036436763 -0.007692398
-0.14039935 0.061294187 -0.040471766 0.14205055 0.032557994 -0.14795849 0.11988065 -0.030670462
-0.11523682 0.017151048 0.07323782 -0.13034835 0.10995503 -0.090065315 -0.041663773 0.22320504
0.0054477253 0.024353478 0.035629828 0.02488725 -0.018735126 0.060910124 0.064800575 -0.06061613
-0.087925896 -0.011235995 -0.1312724 0.007901969 -0.1265899 -0.038477555 0.10545194 0.028919961
-0.16174284 -0.019595541 -0.07920169 0.11875457 0.14610511 0.092571445 0.14370428 0.047924902
-0.0036159093 0.27081317 -0.13915004 -0.037911564 -0.2180584 0.0045969035 -0.20254019 -0.023914702
-0.07826802 -0.034078125 0.005781431 -0.104532965 0.15070261 0.043810997 0.10425633 -0.11741351
0.08392947 -0.028843781 -0.08536828 -0.14845055 0.028068488 0.058081664 0.1316053 -0.074437715
0.15968049 -0.07724917 -0.05231106 -0.059127044 0.010498835 0.09762957 -0.018884199 -0.07633604
00000000: 2b02 f4bc d1cc 733d cdd8 8a3d a9c7 283e
00000010: db74 33be ab82 433c e6f3 b43d 6356 0a3e
00000020: 331d cfbd 8078 11bc 8bcd 1fbe 1403 13be
00000030: 0e99 273e b5ec 6bbc 48da d23d 6843 90bd
00000040: 0b42 193e 5dd9 1b3e f921 243e ae5f 493e
00000050: dea6 c6bd 12a4 223d 9988 0f3e 0977 e0bd
00000060: c09f af3d 7221 653d 08c5 d8bd 9454 8dbd
00000070: e3ca ac3d d3f9 d9bd 4218 4fbd ca3a d23d
00000080: 1698 3b3d 9a54 13be d2a8 83bd c01f 153e
00000090: 6220 f2bc e4dc 0c3e 550a 483a 522f ed3d
000000a0: 0bcd 113d 67a2 92bd 58de 06be cf36 803d
000000b0: 86b1 c5bd a8b2 9bbc 7a19 153d c40f 4a3d
000000c0: dfbe 0cbe 8367 9d3c 35a4 a7bd d475 0c3e
000000d0: 7719 e4bd 13cb c43b 2520 803d c17b 6d3c
000000e0: dd17 3c3d ed69 23bd e9b3 da3c e439 a43d
000000f0: d9d9 533e d89d 22be 177a 773e dc60 a1bd
00000100: 7c96 0c3e 6955 2f3e deaa 0e3e ca7f 2bbe
00000110: 73a3 b1bd cf7f cc3d 58b5 1b3e f0a3 703a
00000120: f54d 00be 2739 4f3c fee8 faba f809 243e
00000130: a085 84bd 194d 123e 9ce5 62bd 9343 62be
00000140: 9804 b23c c2e2 52bd 4604 643d 3853 a63d
00000150: cd0d 13bc 4967 debd 7e1f cd3d cd39 ff3d
00000160: 4ddd 23be 3e88 0d3e b9f5 043e 0b75 e8bc
00000170: bd34 b7bd 2da6 4e3e 4d67 40be c22e 11be
00000180: feaa bf3d e296 90bc 3bb1 19bd f9c3 3bbc
00000190: e164 1bbc 70a7 073e 75cc 4dbd aab7 05be
000001a0: 8fd3 babd ce1a 92bc 8968 72bd e408 dc3d
000001b0: 34a9 783d ad03 513d 2f5c 44be 32f3 1d3e
000001c0: b358 a93c 5194 8c3d 4d79 02be 994d bebd
000001d0: 52b8 773d 307b 28bd 5c0d 1d3d d981 fc3b
000001e0: c8f5 3d3d 052d fa3d 8603 eabd efc2 163e
000001f0: 8892 733d 7511 42bd 9fd0 f53d 2d6c dd3d
00000200: 9729 f5bc e2c5 17be 24f6 19be 4d07 573e
00000210: 51c3 1ebd dd04 f1bd 32d4 7fbc 8cce 24be
00000220: dbd2 f93c 3565 e83d ace5 243e 6997 4b3b
00000230: 5eb8 a53d 38d4 61bd 5362 11bb 1f36 47bd
00000240: a4b5 6ebc 6164 613e 2fd9 33be bb92 16be
00000250: 2662 02bd 90cb 0e3c 40d0 65be bc2e 9d3d
00000260: 825e 8c3d feef 33be 2407 e0bd 93f2 f43d
00000270: fc78 4bbd 6f03 61bd cf58 a93d 8ca0 ab3d
00000280: f5e7 a23d 7c14 09bc 8b7d 0abe ce75 d03d
00000290: 8d66 763d 2d40 3fbe 34dc 893d d8d0 d6bc
000002a0: ef19 1abd d733 5abd 20eb 183e 9b50 153e
000002b0: b64b afbd e9b7 2dbd 12d1 ad3d 7d7f c9bd
000002c0: be1f debd 8005 abbd 5c72 643b adbb 073e
000002d0: 30ec b63d e31f 1cbe b73e 153d 8310 fcbb
000002e0: d9c4 0fbe 9d0f 7b3d b9c5 25bd b375 113e
000002f0: 885b 053d 6e82 17be fc83 f53d 9f40 fbbc
00000300: 4801 ecbd 5b80 8c3c b6fd 953d 0a7a 05be
00000310: 1a30 e13d 2a74 b8bd a2a7 2abd dd8f 643e
00000320: d582 b23b f280 c73c 95f0 113d 59e0 cb3c
00000330: 687a 99bc e57c 793d 2ab6 843d 9e48 78bd
00000340: 7e12 b4bd 2e17 38bc 466c 06be 4377 013c
00000350: c8a0 01be a49a 1dbd 30f7 d73d 8ee9 ec3c
00000360: ea9f 25be d486 a0bc 7f34 a2bd 9935 f33d
00000370: 949c 153e 1996 bd3d 3727 133e e74c 443d
00000380: e4f8 6cbb 06a8 8a3e 597d 0ebe 2849 1bbd
00000390: b44a 5fbe 9fa1 963b b266 4fbe c4e8 c3bc
000003a0: fc4a a0bd 8195 0bbd 2972 bd3b 6115 d6bd
000003b0: c951 1a3e 2973 333d 5884 d53d 7f76 f0bd
000003c0: 37e3 ab3d cb49 ecbc 91d5 aebd 6c03 18be
000003d0: e3ef e53c 0ae7 6d3d 8ac3 063e cd72 98bd
000003e0: 4883 233e d034 9ebd 1f44 56bd 332f 72bd
000003f0: 4e03 2c3c 03f2 c73d 09b3 9abc 1256 9cbd

conv1.0.bias f4 [64]
-0.27807397 -0.17535137 -0.08324998 0.028859664 0.09993321 -0.27274624 -0.09273148 -0.23613948
0.12915398 -0.11764127 -0.05376681 -0.21804158 -0.41985884 -0.04037205 0.017497031 -0.2336469
-0.2739249 0.009581053 -0.37117937 -0.18319516 0.025321644 -0.2658117 -0.18886308 -0.16608684
-0.15122144 0.106247485 -0.09918309 -0.12252622 -0.27002493 0.09918518 -0.061956916 0.09435422
0.047959596 -0.27510202 0.160567 0.09826366 -0.22353846 -0.14069006 -0.22001684 -0.21542005
-0.09073246 -0.07420239 0.073890954 -0.19400787 0.070177585 0.045581676 -0.24473189 -0.0023349745
-0.09711151 0.0641163 -0.19697328 -0.14771308 -0.22327612 -0.03382893 -0.13564907 -0.12232302
-0.2144675 -0.21013503 0.12607008 -0.16588503 -0.20303771 0.2950486 -0.1601439 -0.07700787
00000000: b65f 8ebe 4f8f 33be f77e aabd 1a6b ec3c
00000010: c8a9 cc3d 65a5 8bbe 01ea bdbd 8cce 71be
00000020: f140 043e e8ed f0bd 963a 5cbd 4b46 5fbe
00000030: bdf7 d6be 2a5d 25bd ef55 8f3c 2241 6fbe
00000040: e23f 8cbe d9f9 1c3c 390b bebe 8397 3bbe
00000050: 566f cf3c 7918 88be 5365 41be ab12 2abe
00000060: cbd9 1abe 4898 d93d 8120 cbbd 07ef fabd
00000070: b540 8abe 9a21 cb3d 89c6 7dbd c93c c13d
00000080: 4871 443d 2cda 8cbe ad6b 243e 753e c93d
00000090: 44e7 64be 0e11 10be 184c 61be 1397 5cbe
000000a0: f1d1 b9bd 6cf7 97bd 2454 973d 00aa 46be
000000b0: 44b9 8f3d dab3 3a3d ff9a 7abe 5f06 19bb
000000c0: 66e2 c6bd 684f 833d 5db3 49be 1942 17be
000000d0: 7fa2 64be 3490 0abd 97e7 0abe 7e84 fabd
000000e0: 5e9d 5bbe a32d 57be 8418 013e c4dd 29be
000000f0: 1ee9 4fbe 9c10 973e c3fc 23be 4db6 9dbd

conv1.2.weight f4 [64]
0.9136322 0.84290165 1.0889113 0.9583384 0.9955397 0.85008514 0.9953193 0.9637948
0.9097037 1.6108236 0.95921093 0.9391775 1.0173455 0.9646676 0.825545 0.925598
0.9458288 1.1224036 1.0701567 0.94531065 0.8837718 1.0246441 1.0035796 0.95773894
0.99995273 0.95438194 0.9935745 0.9668224 0.97046864 0.91901195 0.9644701 0.9733952
0.95818686 1.0136735 0.9047558 0.83197594 1.0337746 1.0831105 0.9946365 0.9322233
0.9413051 0.92966074 0.9877099 0.89432526 0.9150039 0.96610475 1.1459643 0.9390124
0.95788884 0.8948723 0.84110695 0.9250356 0.9598848 0.87780386 0.9424711 0.9092112
1.0612123 0.9235105 0.9932475 1.0199823 0.94963443 0.9657573 0.8340198 0.9310515
00000000: cde3 693f 67c8 573f 7261 8b3f aa55 753f
00000010: b1db 7e3f 2e9f 593f 3fcd 7e3f 42bb 763f
00000020: 57e2 683f 782f ce3f d98e 753f f06d 703f
00000030: 6138 823f 75f4 763f eb56 533f fef3 6c3f
00000040: d621 723f ecaa 8f3f e5fa 883f e1ff 713f
00000050: de3e 623f 8a27 833f 4c75 803f 612e 753f
00000060: e7fc 7f3f 6052 743f e65a 7e3f ac81 773f
00000070: a270 783f 5e44 6b3f 83e7 763f 6e30 793f
00000080: bc4b 753f 0ec0 813f 139e 673f 60fc 543f
00000090: ba52 843f 5da3 8a3f 7fa0 7e3f 30a6 6e3f
000000a0: 5ff9 703f 3ffe 6d3f 8eda 7c3f 80f2 643f
000000b0: b23d 6a3f a452 773f f5ae 923f 1e63 703f
000000c0: 3438 753f 5a16 653f c952 573f 22cf 6c3f
000000d0: 03bb 753f c1b7 603f c945 713f 11c2 683f
000000e0: ced5 873f 2f6b 6c3f 7845 7e3f c88e 823f
000000f0: 3e1b 733f df3b 773f 5282 553f 6459 6e3f

conv1.2.bias f4 [64]
0.097773924 0.045639217 0.016112572 0.1973131 0.021489589 0.15142031 0.05370987 0.052185345
0.07147064 0.11401545 0.11858049 0.13312005 -0.0026230987 0.12079798 0.09548712 0.074688904
-0.021440197 0.10278024 0.012698492 0.019836232 0.12546232 -0.14227541 -0.029014366 0.1418817
0.031474862 -0.099709585 0.22856253 0.12539145 0.15856847 -0.047418732 0.15558659 0.056615025
0.13970771 -0.06549788 0.12870626 0.11128584 0.11737743 0.037048 0.05118248 0.20609283
0.22389032 0.10788047 0.102903776 0.08253614 0.029402675 0.074529596 0.17102785 0.14415082
-0.04464822 0.15361936 0.037092146 0.069101855 -0.015970115 0.23894043 0.14332269 0.035831604
0.105301045 0.16140617 0.020780396 -0.06380703 0.15840934 0.099711135 0.084976956 0.22047229
00000000: b23d c83d 30f0 3a3d 83fe 833c 720c 4a3e
00000010: ef0a b03c ed0d 1b3e e1fe 5b3d 4dc0 553d
00000020: 335f 923d ef80 e93d 54da f23d 9f50 083e
00000030: 4be8 2bbb ee64 f73d c08e c33d 7ff6 983d
00000040: 5aa3 afbc 727e d23d 560d 503c 987f a23c
00000050: 3279 003e a5b0 11be 89af edbc 7049 113e
00000060: c9eb 003d 8a34 ccbd 4c0c 6a3e 9e66 003e
00000070: c65f 223e 253a 42bd 1752 1f3e 28e5 673d
00000080: 8a0f 0f3e c123 86bd 93cb 033e d5e9 e33d
00000090: 9463 f03d a5bf 173d b8a4 513d 000a 533e
000000a0: 8143 653e 70f0 dc3d 37bf d23d b508 a93d
000000b0: e1dd f03c f9a2 983d ed21 2f3e 469c 133e
000000c0: 0de1 36bd 654e 1d3e efed 173d 4685 8d3d
000000d0: c2d3 82bc cdac 743e 2fc3 123e 29c4 123d
000000e0: 13a8 d73d a947 253e a63b aa3c 43ad 82bd
000000f0: 0f36 223e 5a35 cc3d 6608 ae3d 7dc3 613e

conv1.2.running_mean f4 [64]
0.1472109 0.1528718 0.12253417 0.17938472 0.24789226 0.020719418 0.1470148 0.015020279
0.21366258 0.016786674 0.16122252 0.42618635 0.04332381 0.18496338 0.4440801 0.07778269
0.15693226 0.27659115 0.039392706 0.11267834 0.25506756 0.07476862 0.058765855 0.14572059
0.13296539 0.23756135 0.20435564 0.07966386 0.0634401 0.24312921 0.16690613 0.24583647
0.23564926 0.0662969 0.24869835 0.4284226 0.107956454 0.12566192 0.08101714 0.08961776
0.12503576 0.5582212 0.21104763 0.15179564 0.24585564 0.14467044 0.053175468 0.21074645
0.22334622 0.26632264 0.08797929 0.14030315 0.10188399 0.23151603 0.13215208 0.12129899
0.114853196 0.058720417 0.2414705 0.080199964 0.14892377 0.33109 0.2192781 0.123285666
00000000: 74be 163e 6d8a 1c3e 32f3 fa3d a1b0 373e
00000010: 78d7 7d3e c5bb a93c 0c8b 163e 9e17 763c
00000020: 5dca 5a3e 3584 893c 8417 253e 1935 da3e
00000030: 4f74 313d 0a67 3d3e 785e e33e 884c 9f3d
00000040: dab2 203e 5b9d 8d3e 3f5a 213d e7c3 e63d
00000050: 3798 823e 4a20 993d 77b4 703d c737 153e
00000060: 1428 083e 4843 733e 9b42 513e ce26 a33d
00000070: e2ec 813d ddf6 783e 71e9 2a3e 8ebc 7b3e
00000080: 0a4e 713e abc6 873d c8aa 7e3e 355a db3e
00000090: 4618 dd3d 85ad 003e 50ec a53d 8489 b73d
000000a0: 6009 003e 96e7 0e3f df1c 583e 5170 1b3e
000000b0: 95c1 7b3e 7d24 143e 85ce 593d ebcd 573e
000000c0: dfb4 643e 715b 883e 7c2e b43d a1ab 0f3e
000000d0: 8ea8 d03d 8a12 6d3e e052 073e 9b6b f83d
000000e0: 2738 eb3d d284 703d 0b44 773e e13f a43d
000000f0: 797f 183e a184 a93e 708a 603e 327d fc3d

conv1.2.running_var f4 [64]
0.071807474 0.051851742 0.03640042 0.06493784 0.098028444 0.0044370806 0.054331675 0.0025340454
0.058385786 0.005040854 0.05656915 0.42273214 0.012421954 0.074998386 0.36173013 0.025576804
0.08765603 0.14218298 0.012938715 0.04508214 0.11929799 0.02605573 0.0148537895 0.06455783
0.051495526 0.085503094 0.12496494 0.022327999 0.02164219 0.09078244 0.06806494 0.09762872
0.095412 0.019691076 0.071043186 0.30334967 0.044370808 0.052107506 0.025417047 0.030414985
0.04043528 0.46287367 0.07408055 0.068663925 0.10180497 0.03486714 0.018531797 0.096895784
0.11321976 0.117995694 0.02657439 0.05956568 0.039379597 0.112022415 0.051391926 0.041392274
0.04219812 0.016745303 0.08100864 0.023827676 0.06659973 0.076440275 0.13441187 0.039047904
00000000: cc0f 933d 7e62 543d 9b18 153d 21fe 843d
00000010: 23c3 c83d ee64 913b e48a 5e3d 3a12 263b
00000020: ef25 6f3d c02d a53b 0eb5 673d 5970 d83e
00000030: 7485 4b3c c198 993d b134 b93e 7286 d13c
00000040: 0185 b33d 6a98 113e e7fc 533c 0da8 383d
00000050: 8152 f43d d472 d53c 4f5d 733c e536 843d
00000060: f9ec 523d 3f1c af3d 9eed ff3d 35e9 b63c
00000070: f64a b13c 25ec b93d a265 8b3d 91f1 c73d
00000080: 5e67 c33d 2e4f a13c 177f 913d a650 9b3e
00000090: 2abe 353d ae6e 553d 6937 d03c d928 f93c
000000a0: 779f 253d c7fd ec3e 8bb7 973d ac9f 8c3d
000000b0: 207f d03d d9d0 0e3d ffcf 973c 4c71 c63d
000000c0: c3df e73d baa7 f13d 89b2 d93c 24fb 733d
000000d0: 804c 213d 026c e53d 5780 523d f28a 293d
000000e0: f0d7 2c3d 722d 893c dce7 a53d 4232 c33c
000000f0: 7065 883d b88c 9c3d 44a3 093e b2f0 1f3d

conv2.0.weight f4 [128, 64, 3]
-0.05899543 8.594658e-05 -0.06439586 0.029024519 0.0025123125 -0.0018126853 -0.11097019 0.059896495
0.034940157 -0.07266794 -0.006044873 -0.0738249 -0.08681 -0.10199758 0.029605852 -0.08102568
-0.05592413 0.048153237 -0.027279185 -0.012532675 -0.07351898 0.10190808 0.08229106 0.046500277
0.022769121 -0.042621892 -0.02817666 -0.09194271 -0.12030131 -0.14289215 -0.03863988 0.026134586
0.024582615 0.03956996 -0.0790237 0.0058094985 0.047673106 -0.032128412 0.09985322 -0.064707786
-0.004749374 -0.094555855 -0.024836197 -0.012747342 -0.03207964 0.004904526 -0.040452473 0.025995336
-0.036923464 -0.079927914 0.039263908 0.086252585 0.020989556 0.015885571 0.03754361 0.034455907
0.029864352 -0.04153097 -0.07398903 -0.03400891 -0.051166665 -0.058800388 -0.02454483 0.014909609
0.04151452 -0.04122791 0.068184376 0.09311459 0.053038772 -0.07243565 -0.10255298 -0.057197247
-0.058802713 0.022933759 0.005723657 0.014804776 0.06113463 0.06441518 -0.04120179 -0.02661287
-0.01286764 0.025686849 -0.11530751 0.013657309 -0.09763446 0.009289764 -0.06575239 -0.03797185
0.04922246 0.027384058 -0.045298107 -0.0033477999 -0.024375921 -0.03991912 -0.021198975 0.0040291683
0.014068879 0.07597351 -0.015324358 0.014656869 -0.04350173 -0.11003283 -0.074078515 -0.052702613
-0.043005135 -0.10680401 -0.039815243 -0.07907005 -0.11009794 -0.046880536 0.07365932 0.018708766
-0.06358498 0.057614528 -0.11607381 -0.037286784 -0.11342327 -0.14869471 -0.063656434 -0.049290173
-0.06902351 -0.13096377 -0.08092181 -0.0035531172 0.0075404057 -0.087443106 0.0061095865 -0.0588385
0.020430041 -0.04561767 0.020771276 -0.0745703 -0.112861775 0.09510556 -0.055161003 -0.059284452
-0.005342814 -0.099306926 -0.24286126 -0.120100535 -0.05081269 -0.06735372 -0.004172884 0.0080618
0.043018833 0.018855022 -0.0017216365 -0.018671563 -0.034291886 -0.05831857 -0.026587183 -0.0017789331
-0.10681579 -0.057007153 0.07529236 -0.081899285 0.03459405 0.010209085 -0.0006009355 -0.038056307
-0.034684498 0.019219123 -0.051881462 0.021287434 0.0077262637 -0.0136625925 -0.033642206 0.042755164
0.11856663 0.019899754 -0.06931547 -0.061284512 -0.044563897 -0.085838385 0.13719489 -0.04041524
0.029755069 0.041735224 0.0043161046 0.063738436 0.023426358 -0.12758255 -0.041882537 -0.06050997
0.058316942 0.0466474 -0.013464124 -0.07795268 -0.023212396 0.00045798888 -0.09775921 0.03090137
0.116080515 0.14479737 -0.0021129346 0.044589993 -0.0105370125 0.07548357 -0.033536714 -0.05824311
-0.059360065 -0.025950741 0.04313209 0.037257373 0.025433056 0.021202063 -0.04533665 -0.01262978
-0.06844927 0.046361245 -0.0012856231 0.008986194 0.0020035866 0.048052154 -0.033301823 0.019517122
-0.18903103 -0.07729941 -0.08701392 -0.023379544 0.014704343 -0.019919205 -0.01833889 0.03475484
0.011157621 -0.013442553 -0.02074598 0.09312409 0.0042406977 -0.06932406 -0.008096206 -0.12721945
-0.049509205 0.0116610145 0.070034266 0.025161102 0.037231557 -0.039676428 0.011483743 0.028652187
-0.0130678285 0.02303777 -0.06209212 0.033586707 0.0929088 0.0221441 0.0074418113 0.07100499
-0.05904497 -0.06456623 -0.01837537 -0.009804213 0.031741954 -0.067725375 -0.008498415 0.02671589
00000000: 31a5 71bd 383e b438 fae1 83bd d4c4 ed3c
00000010: 9ca5 243b a097 edba 5744 e3bd 0756 753d
00000020: 691d 0f3d eed2 94bd 1214 c6bb 8231 97bd
00000030: 71c9 b1bd 1be4 d0bd f987 f23c cbf0 a5bd
00000040: b310 65bd 543c 453d 9978 dfbc d955 4dbc
00000050: 1e91 96bd 2fb5 d03d 3788 a83d 1377 3e3d
00000060: 4f86 ba3c 4b94 2ebd bdd2 e6bc 764c bcbd
00000070: 8960 f6bd 5252 12be da44 1ebd 3318 d63c
00000080: 7b61 c93c 1c14 223d 2dd7 a1bd 9b5d be3b
00000090: e044 433d 1599 03bd d87f cc3d 8485 84bd
000000a0: a3a0 9bbb 80a6 c1bd 4875 cbbc 3ada 50bc
000000b0: f165 03bd 25b6 a03b 7eb1 25bd 2cf4 d43c
000000c0: 0f3d 17bd 3fb1 a3bd 31d3 203d 32a5 b03d
000000d0: 4af2 ab3c 7522 823c 54c7 193d a321 0d3d
000000e0: 16a6 f43c 611c 2abd 9087 97bd ed4c 0bbd
000000f0: 2394 51bd add8 70bd 3d12 c9bc 6f47 743c
00000100: 210b 2a3d 99de 28bd 40a4 8b3d ddb2 be3d
00000110: 2f3f 593d 2459 94bd 4c07 d2bd a947 6abd
00000120: 1ddb 70bd 94df bb3c 848d bb3b bb8f 723c
00000130: 4e68 7a3d 1bec 833d 35c3 28bd 3c03 dabc
00000140: cbd2 52bc 3a6d d23c 5826 ecbd e8c2 5f3c
00000150: 93f4 c7bd 1834 183c 30a9 86bd 5f88 1bbd
00000160: 7d9d 493d 8854 e03c 828a 39bd c366 5bbb
00000170: 03b0 c7bc 3b82 23bd 79a9 adbc 1d07 843b
00000180: 2881 663c 0098 9b3d 0413 7bbc 5d23 703c
00000190: df2e 32bd e458 e1bd 7ab6 97bd b2de 57bd
000001a0: 2726 30bd 10bc dabd 4f15 23bd 7aef a1bd
000001b0: 077b e1bd ce05 40bd b3da 963d 2043 993c
000001c0: d838 82bd 36fd 6b3d 1bb8 edbd 07ba 18bd
000001d0: 764a e8bd 6d43 18be 4e5e 82bd 7ee4 49bd
000001e0: 335c 8dbd 5e1b 06be 55ba a5bd 6adb 68bb
000001f0: 8215 f73b 5f15 b3bd ed32 c83b a400 71bd
00000200: e75c a73c 98d9 3abd 8628 aa3c 50b8 98bd
00000210: 1324 e7bd b4c6 c23d 81f0 61bd 41d4 72bd
00000220: c612 afbb 6e61 cbbd 9fb0 78be 45f7 f5bd
00000230: f820 50bd bff0 89bd b0bc 88bb a415 043c
00000240: 8434 303d d975 9a3c 89a8 e1ba 1bf5 98bc
00000250: a675 0cbd 74df 6ebd 5dcd d9bc 172b e9ba
00000260: 3dc2 dabd 5580 69bd e132 9a3d d0ba a7bd
00000270: 7eb2 0d3d 0244 273c 1988 1dba eee0 1bbd
00000280: 5511 0ebd 6c71 9d3c a881 54bd fc62 ae3c
00000290: 992c fd3b 11d9 5fbc 69cc 09bd 0a20 2f3d
000002a0: 10d3 f23d cf04 a33c 45f5 8dbd 7805 7bbd
000002b0: a288 36bd 09cc afbd d17c 0c3e 738a 25bd
000002c0: e7c0 f33c 8ef2 2a3d 1c6e 8d3b 4c89 823d
000002d0: a2e8 bf3c 00a5 02be 068d 2bbd 4dd9 77bd
000002e0: bfdd 6e3d 5811 3f3d a198 5cbc a8a5 9fbd
000002f0: ec27 bebc 3a1e f039 fb35 c8bd df24 fd3c
00000300: 9fbb ed3d c345 143e 2979 0abb ffa3 363d
00000310: 6fa3 2cbc 2197 9a3d cb5d 09bd 5490 6ebd
00000320: 8a23 73bd a696 d4bc 46ab 303d 309b 183d
00000330: fc58 d03c f3af ad3c ecb2 39bd 23ed 4ebc
00000340: 222f 8cbd 4ae5 3d3d 5a82 a8ba d43a 133c
00000350: 9b4e 033b 56d2 443d 7e67 08bd 5fe2 9f3c
00000360: 5a91 41be 274f 9ebd 5b34 b2bd 7586 bfbc
00000370: 7cea 703c 9a2d a3bc 713b 96bc 175b 0e3d
00000380: 74ce 363c 273e 5cbc 79f3 a9bc d8b7 be3d
00000390: 8df5 8a3b c6f9 8dbd f3a5 04bc d145 02be
000003a0: 2aca 4abd d70d 3f3c 206e 8f3d a81e ce3c
000003b0: 1e80 183d c083 22bd 4f26 3c3c feb7 ea3c
000003c0: 721a 56bc b5b9 bc3c 4f54 7ebd 3792 093d
000003d0: f846 be3d 8b67 b53c 70da f33b 106b 913d
000003e0: 23d9 71bd 4d3b 84bd f287 96bc daa1 20bc
000003f0: da03 023d 9ab3 8abd f03c 0bbc 48db da3c

conv2.0.bias f4 [128]
-0.06159272 0.029762318 0.0062583857 -0.026465556 0.0070131156 -0.03370633 -0.09059671 -0.05982944
0.011947041 -0.060913306 -0.010829922 -0.041128054 -0.044906747 0.044812266 -0.06952639 -0.119838804
-0.0044006114 -0.062148176 -0.12912184 0.014993746 0.002652303 0.07300334 0.0471861 0.036707826
-0.11958709 0.090619706 0.024396002 -0.030567402 -0.14156428 -0.08226639 0.086533666 -0.023296446
-0.014521742 -0.087798975 -0.0074229455 -0.05717078 -0.069347054 -0.18801045 -0.038323186 0.022695322
-0.05607146 -0.084969096 -0.05236316 0.0321197 0.03603042 0.055814683 -0.0077118278 0.09662275
-0.008387079 -0.106991805 -0.047149833 0.002824587 -0.1441224 -0.05589909 -0.081140175 0.023849912
-0.026454201 -0.07240244 0.046272095 -0.20331432 -0.056415357 -0.09001566 -0.14682524 0.06348647
-0.13237527 0.019681958 -0.064881034 -0.03276843 -0.12595885 -0.017345322 -0.12790586 -0.060914006
-0.08590573 -0.06897915 -0.016557846 -0.025204707 -0.061177984 0.046449866 -0.09530609 -0.035281844
0.118427455 -0.060945805 0.010757626 0.045820292 -0.059906684 0.0003700601 -0.07139694 -0.06838873
-0.008948501 -0.017454244 -0.07740264 -0.0910207 -0.06994471 -0.0014989453 0.05439826 0.014323063
0.060851295 0.014123316 0.03960378 -0.0950453 0.00043551455 -0.18967842 -0.04061432 0.025812125
-0.0981448 -0.00042984335 0.014847449 0.03269934 0.0704094 -0.038287163 0.008008218 -0.010553151
-0.013050932 -0.081454016 -0.06496569 0.047445547 -0.15816464 0.015336463 -0.04749149 0.07292229
-0.14472798 -0.083566174 -0.04780087 -0.039490424 0.07356141 -0.0090458 0.118400805 0.013319928
00000000: a648 7cbd 1bd0 f33c 2513 cd3b 4bce d8bc
00000010: 47ce e53b a60f 0abd c58a b9bd b70f 75bd
00000020: 86bd 433c 3b80 79bd fc6f 31bc e475 28bd
00000030: 23f0 37bd 118d 373d da63 8ebd 0c6e f5bd
00000040: 0133 90bb 168f 7ebd 8438 04be 54a8 753c
00000050: 43d2 2d3b c682 953d 3646 413d f25a 163d
00000060: 14ea f4bd d396 b93d 20da c73c 7d68 fabc
00000070: 3af6 10be 487b a8bd 9038 b13d 30d8 bebc
00000080: 9aec 6dbc f3cf b3bd 2e3c f3bb e82b 6abd
00000090: d405 8ebd d085 40be c6f8 1cbd 8aeb b93c
000000a0: 30ab 65bd 4704 aebd c17a 56bd f28f 033d
000000b0: a294 133d f09d 643d 80b3 fcbb 26e2 c53d
000000c0: f669 09bc 851e dbbd 2f20 41bd b51c 393b
000000d0: d394 13be 72f6 64bd d22c a6bd e460 c33c
000000e0: 7bb6 d8bc bb47 94bd cf87 3d3d a131 50be
000000f0: ca13 67bd 215a b8bd 5b59 16be 3205 823d
00000100: 628d 07be 0f3c a13c 59e0 84bd 3038 06bd
00000110: 5bfb 00be c717 8ebc c1f9 02be f780 79bd
00000120: 58ef afbd f144 8dbd 52a4 87bc 1a7a cebc
00000130: c495 7abd 3742 3e3d d72f c3bd b283 10bd
00000140: 188a f23d 4fa2 79bd c140 303c 0fae 3b3d
00000150: b660 75bd a004 c239 8f38 92bd 640f 8cbd
00000160: bc9c 12bc 34fc 8ebc 4685 9ebd 1069 babd
00000170: 2c3f 8fbd 4278 c4ba b6d0 5e3d 48ab 6a3c
00000180: 353f 793d 7b65 673c 9337 223d 1ca7 c2bd
00000190: c655 e439 0f3b 42be 345b 26bd f373 d33c
000001a0: 2400 c9bd 995c e1b9 b742 733c beef 053d
000001b0: ce32 903d 00d3 1cbd e734 033c 20e7 2cbc
000001c0: 94d3 55bc 5dd1 a6bd bb0c 85bd 4356 423d
000001d0: e9f5 21be ca45 7b3c 7086 42bd 4858 953d
000001e0: 9233 14be be24 abbd d8ca 43bd b6c0 21bd
000001f0: 5da7 963d d634 14bc 1f7c f23d d43b 5a3c

conv2.2.weight f4 [128]
1.0502102 0.9143076 1.1708539 1.0431218 1.3413516 1.2407144 1.2322435 1.6882676
1.4960436 1.0659182 0.9873236 1.3337247 1.168014 1.1706177 1.5584934 1.4639283
1.7085398 1.1764762 1.2487016 1.1567097 1.1481669 0.938559 1.2206386 1.279209
1.7677572 1.0992413 1.2963358 1.0498711 1.1449703 1.165627 1.1896678 1.1786175
1.2278097 1.1512954 1.4735748 1.0846692 1.2990284 1.1082425 0.9933523 1.2136258
1.2188075 1.3398479 1.0487256 1.0630262 1.2231692 1.1580949 1.1912478 1.1807325
1.2409917 1.0861077 0.9958325 1.4627686 1.603833 1.0229325 1.2106748 0.93774724
1.2515657 1.2279983 1.0652621 1.3734299 1.3520782 1.3279469 1.5180995 1.5980194
1.4000987 1.1511667 1.3277867 1.2726527 1.3257776 1.0848339 1.3684423 1.3117907
0.8514747 1.1754448 1.2529511 1.7782574 0.8590845 1.1515123 1.6457192 1.4231489
1.202573 1.1292478 1.6023841 1.2060702 1.2819345 1.2503844 1.1929758 1.6871461
1.1160188 0.9548065 1.2881852 0.89961624 1.4208639 1.158662 1.0393049 1.1530689
0.9844636 1.4229925 1.1959091 1.1672679 1.3166026 1.4190053 0.8512748 1.0702415
1.1697376 1.2065445 1.1607246 1.222684 1.4524122 1.3323605 1.1826493 1.1652509
1.1091028 1.1087974 1.3348693 1.4182142 1.2037482 1.2889926 1.2498313 1.0894939
1.5206399 1.6023092 0.97036296 1.4045627 1.2148322 1.1259334 1.093788 1.7969421
00000000: 4a6d 863f 1010 6a3f 8ade 953f 0485 853f
00000010: 69b1 ab3f bbcf 9e3f 28ba 9d3f 2719 d83f
00000020: 5b7e bf3f 0270 883f 3dc1 7c3f 7eb7 aa3f
00000030: 7c81 953f cdd6 953f b67c c73f 0162 bb3f
00000040: 6fb1 da3f c696 963f 74d5 9f3f 100f 943f
00000050: 22f7 923f 6745 703f e33d 9c3f 1fbd a33f
00000060: de45 e23f f0b3 8c3f 55ee a53f 2d62 863f
00000070: 638e 923f 4433 953f 0947 983f f0dc 963f
00000080: de28 9d3f a65d 933f 199e bc3f 71d6 8a3f
00000090: 9046 a63f e4da 8d3f 564c 7e3f 1758 9b3f
000000a0: e201 9c3f 2380 ab3f a43c 863f 3e11 883f
000000b0: cf90 9c3f 743c 943f cf7a 983f 3e22 973f
000000c0: d1d8 9e3f 9405 8b3f e1ee 7e3f 003c bb3f
000000d0: 664a cd3f 74ef 823f 64f7 9a3f 3410 703f
000000e0: 4e33 a03f 0c2f 9d3f 825a 883f 8dcc af3f
000000f0: e610 ad3f 2afa a93f 1651 c23f e68b cc3f
00000100: 6f36 b33f 6e59 933f eaf4 a93f 49e6 a23f
00000110: 15b3 a93f d6db 8a3f 1e29 af3f c2e8 a73f
00000120: 3ffa 593f fa74 963f b460 a03f f09d e33f
00000130: f6ec 5b3f c164 933f eda6 d23f be29 b63f
00000140: e9ed 993f 318b 903f ec1a cd3f 8260 9a3f
00000150: 6e16 a43f 990c a03f 6eb3 983f 67f4 d73f
00000160: b4d9 8e3f 336e 743f 41e3 a43f 404d 663f
00000170: dede b53f 094f 943f f107 853f c397 933f
00000180: ce05 7c3f 9e24 b63f 8d13 993f 0969 953f
00000190: 6f86 a83f f7a1 b53f 25ed 593f acfd 883f
000001a0: f6b9 953f 0d70 9a3f a092 943f e980 9c3f
000001b0: a5e8 b93f ca8a aa3f 0d61 973f f126 953f
000001c0: 15f7 8d3f 13ed 8d3f ffdc aa3f 0b88 b53f
000001d0: 6c14 9a3f b6fd a43f 79fa 9f3f 8974 8b3f
000001e0: 54a4 c23f 7818 cd3f b569 783f b6c8 b33f
000001f0: 9f7f 9b3f 961e 903f 3f01 8c3f 3302 e63f

conv2.2.bias f4 [128]
-0.5469928 -0.21116427 0.2886622 -0.21769446 0.20747137 0.538486 -0.031626742 0.14176191
0.51399994 -0.28367934 -0.44086334 -0.2107737 -0.2368692 0.29038095 0.23383534 -0.43181235
0.2858815 -0.155269 -0.31771886 -0.00090692914 -0.0066287 0.16622448 0.37887803 0.23065434
0.45412344 0.35252485 0.2066841 0.10263269 -0.3415846 -0.2338081 -0.0005199519 -0.1386226
0.522984 -0.4094484 0.31251574 -0.07983081 0.015600208 -0.51550007 -0.29366708 0.24569008
-0.17681877 -0.116897434 -0.1590449 -0.41863814 0.50483626 -0.3208897 0.11007497 0.4140696
-0.33557066 -0.5950337 -0.08138247 0.2129178 0.040566396 -0.13432899 0.042892896 -0.24888204
0.4809539 0.20968626 -0.52218497 -0.3911619 0.3084154 -0.23569235 -0.2880554 0.5900137
-0.35454756 -0.24596313 0.28880596 -0.07803601 0.17773636 -0.14365093 -0.39556333 -0.11691799
-0.2792134 -0.04416425 0.13289042 0.348824 -0.055327732 0.031670723 0.34932446 0.40085697
-0.027500413 0.083793536 0.33762252 0.39849606 -0.0067002536 -0.03334954 -0.0069470643 0.26841286
0.03636823 -0.1653106 0.2700331 0.06178585 -0.102911904 0.14244603 -0.3113145 -0.34855768
-0.29515195 0.15034838 0.2073392 0.1505898 -0.009298141 -0.17753945 0.3032601 -0.13637525
0.14904545 -0.43933192 0.14399993 0.31971392 0.32781315 -0.13381648 0.092443824 0.22283922
-0.11635422 -0.40934905 -0.12143321 -0.10936493 -0.22104815 0.31769615 -0.086302675 -0.3893779
0.31915876 -0.3999456 0.26811653 0.08145091 -0.02650821 0.18131186 0.4222851 0.49612093
00000000: b807 0cbf 723b 58be 88cb 933e 4ceb 5ebe
00000010: 6073 543e 38da 093f 0b8b 01bd 092a 113e
00000020: 8095 033f 6b3e 91be d7b8 e1be 10d5 57be
00000030: d78d 72be d0ac 943e 8872 6f3e 8216 ddbe
00000040: 0f5f 923e d6fe 1ebe 0cac a2be fcbe 6dba
00000050: 9135 d9bb c036 2a3e 4dfc c13e a730 6c3e
00000060: de82 e83e 237e b43e ffa4 533e 1631 d23d
00000070: 2de4 aebe 646b 6fbe 624d 08ba 15f3 0dbe
00000080: 48e2 053f 38a3 d1be 1002 a03e 567e a3bd
00000090: 0498 7f3c d0f7 03bf 885b 96be 2e96 7b3e
000000a0: fb0f 35be ec67 efbd abdc 22be bd57 d6be
000000b0: f33c 013f a84b a4be fc6e e13d ee00 d43e
000000c0: ebcf abbe 2154 18bf daab a6bd 2007 5a3e
000000d0: f328 263d 8a8d 09be 76b0 2f3d efda 7ebe
000000e0: 973f f63e ffb7 563e eaad 05bf 5f46 c8be
000000f0: a0e8 9d3e 5659 71be ff7b 93be 230b 173f
00000100: 4287 b5be c2dd 7bbe 60de 933e 58d1 9fbd
00000110: 8500 363e 3b19 13be 4787 cabe b372 efbd
00000120: 0ff5 8ebe 93e5 34bd 6d14 083e 0f99 b23e
00000130: 559f 62bd 29b9 013d a8da b23e 203d cd3e
00000140: 8c48 e1bc f29b ab3d dcdc ac3e ad07 cc3e
00000150: cd8d dbbb 8799 08bd 33a4 e3bb 696d 893e
00000160: daf6 143d 2f47 29be c741 8a3e 2913 7d3d
00000170: 7ac3 d2bd 5fdd 113e 9d64 9fbe 2776 b2be
00000180: 281e 97be edf4 193e ba50 543e 3634 1a3e
00000190: 3b57 18bc e7cc 35be e844 9b3e f4a5 0bbe
000001a0: 5f9f 183e 1df0 e0be b874 133e 8bb1 a33e
000001b0: 20d7 a73e 3007 09be 3053 bd3d f72f 643e
000001c0: 1f4b eebd 3396 d1be fab1 f8bd b8fa dfbd
000001d0: 725a 62be 12a9 a23e 75bf b0bd 8a5c c7be
000001e0: c768 a33e abc5 ccbe 9246 893e bccf a63d
000001f0: bf27 d9bc d1a9 393e c135 d83e 9003 fe3e

conv2.2.running_mean f4 [128]
0.022340845 0.80922854 0.49520847 0.17263687 0.22010767 0.30149803 0.17728008 0.21181828
0.47196314 0.14199667 0.30646837 0.03284412 0.3309877 0.52527297 0.1467048 0.0228056
0.5195632 0.36099383 0.0071932385 0.22133133 0.083235316 0.25087532 0.48693654 0.5009778
0.27596438 0.4825917 0.6599121 0.21270573 0.05674216 0.033433937 0.40424168 0.10826632
0.4030334 0.1499679 0.21135232 0.08842551 0.24154872 0.008076638 0.2124928 0.5875511
0.37819543 0.28081882 0.17112084 0.15881765 0.8207127 0.5068295 0.23836982 0.4057222
0.08215716 0.042001154 0.20509014 0.6403718 0.17213127 0.16930246 0.14798664 0.05266464
0.74135816 0.2588806 0.10083118 0.015730336 0.27236828 0.32709897 0.010829631 0.47000653
0.016731642 0.49399507 0.19180347 0.06346813 0.21965009 0.057819355 0.012189123 0.017708758
0.078203715 0.46625715 0.57802397 0.53521425 0.09298135 0.19655006 0.38973078 0.6574417
0.23028888 0.46805707 0.38446 0.64140856 0.19757037 0.3719919 0.06827399 0.37164786
0.53869605 0.25409573 0.8263554 0.28926367 0.17068905 0.64583296 0.51642466 0.6413635
0.7852465 0.274347 0.37352458 0.0061680446 0.3013763 0.006989626 0.24738365 0.10138911
0.7299285 0.075159125 0.3816933 0.38482493 0.72003716 0.027399492 0.64572704 0.049978755
0.13946415 0.46101615 0.043321602 0.045574076 0.07825447 0.40976286 0.36922562 0.084553614
0.1392869 0.007414982 0.24645844 0.25936896 0.3843271 0.26847884 0.6693615 0.502737
00000000: 2604 b73c 9a29 4f3f f78b fd3e b8c7 303e
00000010: e863 613e f35d 9a3e e988 353e e4e6 583e
00000020: 27a5 f13e 9367 113e 6ce9 9c3e 8e87 063d
00000030: 3877 a93e 4a78 063f c839 163e cfd2 ba3c
00000040: 1802 053f 2fd4 b83e 42b5 eb3b aea4 623e
00000050: 4777 aa3d bb72 803e bf4f f93e 1540 003f
00000060: 344b 8d3e 4216 f73e 00f0 283f 88cf 593e
00000070: 786a 683d 06f2 083d c4f8 ce3e bbba dd3d
00000080: 655a ce3e 2f91 193e be6c 583e 6f18 b53d
00000090: 8c58 773e e053 043c b697 593e c069 163f
000000a0: d5a2 c13e 7cc7 8f3e 4d3a 2f3e 18a1 223e
000000b0: 3a1a 523f 94bf 013f 3817 743e d2ba cf3e
000000c0: 0342 a83d 6709 2c3d 2603 523e 68ef 233f
000000d0: 2e43 303e a05d 2d3e cf89 173e e1b6 573d
000000e0: a6c9 3d3f ff8b 843e 9480 ce3d e8dc 803c
000000f0: db73 8b3e 8479 a73e c46e 313c b2a4 f03e
00000100: cc10 893c ecec fc3e 2168 443e 94fb 813d
00000110: f4eb 603e fdd3 6c3d e3b4 473c f511 913c
00000120: 4529 a03d 42b9 ee3e 61f9 133f cd03 093f
00000130: 026d be3d 6b44 493e cb8a c73e 194e 283f
00000140: d9d0 6b3e 2da5 ef3e f1d7 c43e 5a33 243f
00000150: e34f 4a3e b975 be3e 3cd3 8b3d a148 be3e
00000160: fce7 093f d618 823e 078c 533f 5e1a 943e
00000170: 1cc9 2e3e 4f55 253f 6834 043f 6630 243f
00000180: ea05 493f 3677 8c3e 9d3e bf3e 4f1d ca3b
00000190: ff4d 9a3e 3c09 e53b 2452 7d3e 18a5 cf3d
000001a0: 98dc 3a3f 07ed 993d 4e6d c33e c607 c53e
000001b0: 5b54 383f e674 e03c 5e4e 253f 86b6 4c3d
000001c0: b1cf 0e3e 4f0a ec3e fe71 313d e2ab 3a3d
000001d0: e143 a03d 70cc d13e 240b bd3e 722a ad3d
000001e0: 3aa1 0e3e 61f9 f23b 9a5f 7c3e 02cc 843e
000001f0: 86c6 c43e 0f76 893e 465b 2b3f 5fb3 003f

conv2.2.running_var f4 [128]
0.014770051 1.4472941 0.5033246 0.11968946 0.26136103 0.2581271 0.16664009 0.2354604
0.4962541 0.09653416 0.2811287 0.019973857 0.32261264 0.57062036 0.12317804 0.013006449
0.52906716 0.34122086 0.0058842287 0.2240206 0.066861734 0.2191104 0.42676547 0.39783564
0.19500463 0.40864015 0.6235657 0.30554646 0.04377511 0.022414887 0.37006608 0.093481734
0.4014524 0.11346434 0.16471457 0.06320331 0.33794084 0.00580353 0.23648365 0.56215066
0.3654887 0.31305045 0.16216658 0.1426692 0.7324124 0.52319014 0.20820633 0.34811738
0.061142147 0.031177811 0.15083973 0.6273721 0.16363792 0.13972348 0.1252867 0.046221904
0.5182741 0.21478702 0.07892891 0.009568769 0.2594069 0.36770305 0.005640762 0.38326856
0.009243675 0.4334426 0.20429157 0.043119144 0.22721602 0.054735765 0.00794381 0.012823027
0.0835531 0.3933531 0.525792 0.43470678 0.083202414 0.1908592 0.32961288 0.4632824
0.18653588 0.5045023 0.42425692 0.6614866 0.23439805 0.32322028 0.06832098 0.31309012
0.673493 0.1955321 0.837983 0.25201043 0.14381428 0.69018525 0.51993287 0.7034537
0.8749437 0.26800957 0.41663784 0.0041279034 0.34754112 0.004086823 0.20925039 0.08210044
0.56846094 0.053351663 0.43915427 0.34515396 0.71296877 0.01582224 0.75006735 0.03919676
0.1347299 0.60714406 0.028087957 0.03006052 0.0883669 0.4109963 0.2910246 0.07010514
0.113000415 0.004503634 0.1924129 0.22982733 0.4184696 0.23474027 0.60145295 0.4373738
00000000: 16fe 713c ef40 b93f e2d9 003f bf1f f53d
00000010: 1dd1 853e 3c29 843e b3a3 2a3e 881c 713e
00000020: 0415 fe3e b4b3 c53d 1af0 8f3e 37a0 a33c
00000030: 7c2d a53e 2d14 123f c544 fc3d 0019 553c
00000040: f270 073f 80b4 ae3e 7dd0 c03b a865 653e
00000050: ceee 883d 7a5e 603e 0181 da3e 1db1 cb3e
00000060: 4baf 473e 4839 d13e 00a2 1f3f 9670 9c3e
00000070: 884d 333d 6d9f b73c 4d79 bd3e 5a73 bf3d
00000080: 2b8b cd3e fe5f e83d f0aa 283e bd70 813d
00000090: 9506 ad3e 8a2b be3b c528 723e 1be9 0f3f
000000a0: 5621 bb3e 2648 a03e ff0e 263e e017 123e
000000b0: 617f 3b3f caef 053f 0a34 553e 713c b23e
000000c0: 3070 7a3d 9c68 ff3c bb75 1a3e 759b 203f
000000d0: b390 273e ac13 0f3e 284b 003e 2e53 3d3d
000000e0: 9dad 043f 21f1 5b3e 7ba5 a13d 53c6 1c3c
000000f0: fbd0 843e 9343 bc3e 24d6 b83b c73b c43e
00000100: c872 173c 30ec dd3e cf31 513e b39d 303d
00000110: 51ab 683e 9c32 603d c126 023c ac17 523c
00000120: e31d ab3d 9465 c93e 4e9a 063f e391 de3e
00000130: 0766 aa3d 9870 433e 05c3 a83e 5a33 ed3e
00000140: 4303 3f3e 1027 013f 3438 d93e 3057 293f
00000150: 0b06 703e 217d a53e dfeb 8b3d 594d a03e
00000160: 0a6a 2c3f 9139 483e 0e86 563f 8307 813e
00000170: 0d44 133e fbaf 303f 521a 053f 8b15 343f
00000180: 4ffc 5f3f 8d38 893e 8e51 d53e 5d43 873b
00000190: e9f0 b13e c2ea 853b bc45 563e 4724 a83d
000001a0: a886 113f 4687 5a3d d4d8 e03e 05b8 b03e
000001b0: 1f85 363f a49d 813c 6a04 403f c88c 203d
000001c0: a3f6 093e cb6d 1b3f b718 e63c 7b41 f63c
000001d0: b5f9 b43d 1b6e d23e 2d01 953e 4993 8f3d
000001e0: c36c e73d 3893 933b e307 453e db57 6b3e
000001f0: a641 d63e c15f 703e d2f8 193f 75ef df3e

fc_layers.0.weight f4 [128, 1536]
-0.024085306 0.0032174662 0.0052572973 0.025403231 0.013523195 0.006000109 0.021284353 0.004626382
-0.010054892 0.00274021 0.020401295 0.01890837 -0.009003628 -0.016443875 -0.02307876 0.0013573747
-0.024709944 -0.00015560724 -0.016966471 0.020767733 0.011307292 -0.021798983 -0.024419365 0.00014980696
-0.0058721527 0.008806776 -0.0015713256 0.00072744675 -0.013980262 -0.014764616 0.012634877 0.012320872
0.024944365 0.00031444617 0.0044455957 -0.016949013 -0.007374564 0.020847894 -0.0042663496 -0.012535826
-0.010993098 -0.0037232228 0.013728607 -0.024781471 0.024731655 -0.0018091835 0.022461724 0.017103836
0.019955866 -0.016852865 -0.0010672938 -0.007960366 -0.024734039 -0.012733606 0.015622966 0.0033542775
-0.009536108 0.014887359 -0.0007944666 0.007130485 -0.02397878 0.015429921 -0.0012539681 0.015883256
0.021158457 0.024090085 -0.010767639 0.00017375313 -0.00075337663 -0.007475244 -0.019117309 0.02443581
-0.007787008 0.025291078 0.013158549 0.001897715 -0.009902595 0.00726828 -0.012205456 -0.017084826
-0.0055146627 -0.022709362 -0.021203179 0.01571628 0.012805626 -0.011895858 0.005096663 0.023921505
0.017146915 -0.010932872 -0.009962304 -0.016762558 -0.002608003 -0.008044794 0.02130074 0.011573747
-0.0018560197 -0.024874654 0.0049250815 0.009993523 -0.0022451784 -0.014755381 0.0012804233 -0.018037416
-0.0069997646 0.025221035 -0.019953368 0.023930646 0.017187461 -0.009818645 -0.0224527 0.021708962
0.018161923 0.016938824 -0.012775772 -0.021031896 0.015822187 0.022948757 -0.021990538 0.007090565
-0.024156198 -0.0004193969 -0.0025324747 -0.00513719 0.007466316 -0.0023503397 -0.01929772 -0.011368785
-0.008697005 0.01150696 0.015018895 0.006809488 -0.013901443 -0.0071166586 0.023207065 0.01112815
-0.022690741 -0.021011524 0.019251361 -0.0104661165 -0.006082829 0.0070545375 0.0122350715 -0.016063018
-0.015346347 -0.0014633741 0.020052817 0.012107473 -0.017680082 -0.008160068 0.0072425716 -0.015480115
0.015742015 0.010341398 -0.004117066 0.010054678 0.017120946 -0.007878225 -0.021122769 0.005518904
0.013953678 0.01663005 -0.0058646984 0.018359415 -0.01692494 -0.023339149 0.009572789 0.020719927
-0.0028906185 0.015692368 0.015056148 0.0007281713 -0.012361017 0.020291068 0.0021176469 0.021290217
-0.018429553 0.012331974 -0.0028502028 -0.0047866087 -0.013373242 -0.004786702 -0.014736617 -0.0132089
0.012100536 -0.0038362797 0.019669805 -0.0012717657 0.01720487 -0.009641981 0.0049082153 -0.0049220175
0.020735413 0.000821352 0.025485802 -0.0007349625 -0.007981334 0.008351494 0.0006190464 -0.0024586227
-0.0054854807 -0.0074817464 0.013507269 -0.008754075 0.013585921 0.022489741 0.007202372 0.00435913
-0.0020134877 -0.0019581951 -0.0006193947 0.009277508 0.008671667 0.018406771 0.0016190223 -0.0064469073
-0.022452133 -0.008882359 -0.004901007 -0.0077005588 0.01926142 0.009763349 0.01969837 -0.00506136
-0.006350441 0.015213516 -0.004344983 0.0046618357 -0.009231331 0.016132355 -0.02495394 -0.004014924
-0.016242042 0.023644976 0.010435164 -0.0061815996 0.00028584898 -0.01795701 0.018582042 0.017114442
0.016803749 -0.006914107 0.015929058 0.014448084 -0.0005204305 0.006710291 -0.0018968116 0.0005312376
0.013824958 0.012733202 0.015190218 -0.01067446 -0.018707592 -0.004465474 -0.015717063 0.011148281
00000000: 8c4e c5bc 20dc 523b 6845 ac3b 701a d03c
00000010: 6490 5d3c 909c c43b 865c ae3c e898 973b
00000020: 46bd 24bc 1895 333b 9e20 a73c bae5 9a3c
00000030: f483 13bc 4eb5 86bc ab0f bdbc f0e9 b13a
00000040: 826c cabc 802a 23b9 45fd 8abc 1821 aa3c
00000050: 3842 393c c893 b2bc 1f0b c8bc 8015 1d39
00000060: 306b c0bb 4c4a 103c f0f4 cdba 20b2 3e3a
00000070: 780d 65bc 4ae7 71bc 8402 4f3c 7cdd 493c
00000080: 2058 cc3c 40dc a439 5cac 913b a8d8 8abc
00000090: 54a6 f1bb 34c9 aa3c bccc 8bbb 1163 4dbc
000000a0: 651c 34bc 5001 74bb f4ed 603c 8302 cbbc
000000b0: 0a9a ca3c 2022 edba a601 b83c 581d 8c3c
000000c0: 7c7a a33c 050f 8abc 70e4 8bba 326c 02bc
000000d0: 0a9f cabc 9da0 50bc 78f7 7f3c 70d3 5b3b
000000e0: 563d 1cbc 1cea 733c c043 50ba d8a6 e93b
000000f0: 256f c4bc c8cd 7c3c 305c a4ba 9a1d 823c
00000100: 8054 ad3c 9258 c53c c06a 30bc 8031 3639
00000110: 407e 45ba e4f2 f4bb e79b 9cbc 9c2d c83c
00000120: 282a ffbb 3c2f cf3c f496 573c c0bc f83a
00000130: 7e3e 22bc c02a ee3b 65f9 47bc 7af5 8bbc
00000140: 58b4 b4bb fc08 babc 4ab2 adbc 6ebf 803c
00000150: b0ce 513c d8e6 42bc e801 a73b 08f7 c33c
00000160: b077 8c3c ca1f 33bc ee38 23bc a251 89bc
00000170: 08eb 2abb 50ce 03bc e47e ae3c d09f 3d3c
00000180: b045 f3ba eec5 cbbc 9462 a13b e0bb 233c
00000190: d823 13bb 8ec0 71bc e0d3 a73a 34c3 93bc
000001a0: 485e e5bb 589c ce3c 3f75 a3bc 340a c43c
000001b0: b8cc 8c3c 62de 20bc baee b7bc fed6 b13c
000001c0: 50c8 943c 4ac3 8a3c 7951 51bc 154b acbc
000001d0: 889d 813c 08ff bb3c 8025 b4bc f857 e83b
000001e0: 38e3 c5bc 80e2 dbb9 e0f7 25bb e055 a8bb
000001f0: 00a8 f43b 2808 1abb 4116 9ebc 2444 3abc
00000200: e27d 0ebc b087 3c3c d011 763c 2022 df3b
00000210: e1c2 63bc dc32 e9bb be1c be3c d852 363c
00000220: efe1 b9bc 5c20 acbc 08b5 9d3c 137a 2bbc
00000230: 7852 c7bb c029 e73b 9c75 483c 9796 83bc
00000240: 3f6f 7bbc b0ce bfba ce45 a43c 6c5e 463c
00000250: d2d5 90bc ceb1 05bc 1853 ed3b 4fa0 7dbc
00000260: 66f5 803c f86e 293c 74e8 86bb 60bc 243c
00000270: 3a41 8c3c ac13 01bc a809 adbc ecd7 b43b
00000280: f89d 643c be3b 883c a82c c0bb 7c66 963c
00000290: 2ca6 8abc be31 bfbc 30d7 1c3c d6bc a93c
000002a0: 8870 3dbb 488d 803c 10ae 763c c0e2 3e3a
000002b0: dd85 4abc 7439 a63c 38c8 0a3b d268 ae3c
000002c0: 93f9 96bc 0c0c 4a3c 78ca 3abb fcd8 9cbb
000002d0: 711b 5bbc c4d9 9cbb da71 71bc 246a 58bc
000002e0: 5441 463c 186a 7bbb 9222 a13c 60b1 a6ba
000002f0: 3af1 8c3c 66f9 1dbc 18d5 a03b e048 a1bb
00000300: 50dd a93c 0050 573a 9ac7 d03c 80aa 40ba
00000310: 24c4 02bc b4d4 083c 8047 223a d820 21bb
00000320: 8cbf b3bb 7029 f5bb 984d 5d3c 406d 0fbc
00000330: 7c97 5e3c 683c b83c e001 ec3b 08d7 8e3b
00000340: b8f4 03bb 1055 00bb e05e 22ba b000 183c
00000350: 9c13 0e3c ccc9 963c 6035 d43a 9440 d3bb
00000360: 89ed b7bc 5087 11bc a098 a0bb f854 fcbb
00000370: 20ca 9d3c 74f6 1f3c 7a5e a13c c4d9 a5bb
00000380: 5c17 d0bb 1c42 793c 5c60 8ebb 50c2 983b
00000390: 023f 17bc 0028 843c 356c ccbc a08f 83bb
000003a0: 080e 85bc 1cb3 c13c 40f8 2a3c 048f cabb
000003b0: 00de 9539 941a 93bc 5e39 983c 9633 8c3c
000003c0: 04a8 893c bc8f e2bb a87d 823c a8b7 6c3c
000003d0: 806d 08ba 00e2 db3b 709e f8ba c042 0b3a
000003e0: 1482 623c ec9e 503c 64e0 783c eee3 2ebc
000003f0: aa40 99bc 1c53 92bb 12c1 80bc 48a7 363c

fc_layers.0.bias f4 [128]
0.009490192 0.014546894 -0.011615527 0.018913597 0.0014601368 0.02335142 -0.02521783 0.010765728
-0.014713528 0.011830427 0.023873717 0.02326594 -0.025490394 0.0153290965 -0.022206694 -0.02094144
0.008090634 0.016423423 0.02447243 0.009199586 0.015455782 0.015229095 -0.020179372 -0.013872404
0.010558024 0.024834976 0.01603181 -0.02144681 -0.00022305362 -0.0046362244 0.011850812 0.014464997
-0.01622137 -0.007661963 0.011465471 -0.01548506 0.0025600083 0.013365589 0.018026616 -0.009058783
-0.022621099 -0.013174431 0.018209953 0.020946655 -0.00878229 0.0044742916 -0.022561245 -0.009882143
-0.005570473 -0.0133368205 0.005232632 0.003648935 0.0047996696 0.00026001036 -0.006444482 0.022481367
0.00033164956 0.005839076 -0.012376718 0.011414837 -0.02322265 0.0066628903 -0.015058029 0.022454828
-0.010344975 0.017531175 0.0024713501 -0.0052968934 0.020395879 0.00041330047 0.024996296 0.007793959
-0.013639904 -0.00682473 -0.02151607 0.020311698 0.02183801 -0.016009012 -0.004535176 -0.013693416
0.0035626907 0.020164162 0.016519673 -0.015160887 0.019403562 0.009547666 -0.0018697344 0.013327207
0.010383613 0.02151265 0.018648677 0.022612743 0.019575402 -0.009376587 -0.02351102 -0.020717483
-0.018036362 -0.0027089175 -0.020849098 -0.0043018665 0.018615548 -0.02060077 -0.0051230397 0.024001267
-0.015162609 0.023323067 -0.019323414 0.02171418 0.002026569 -0.012099189 -0.0009102002 -0.014954396
-0.023638288 -0.0024798475 0.003287129 0.012650948 0.016023807 0.018755116 -0.0145226745 0.012869708
0.020065416 0.00179548 0.002501335 0.008421492 -0.0006262567 -0.007484244 0.02317185 -0.011669562
00000000: c07c 1b3c 1856 6e3c 0d4f 3ebc b0f0 9a3c
00000010: 1062 bf3a 7a4b bf3c 9f95 cebc bc62 303c
00000020: 0211 71bc 68d4 413c d092 c33c 3698 be3c
00000030: 3bd1 d0bc e426 7b3c d0ea b5bc 628d abbc
00000040: 948e 043c 6a8a 863c 687a c83c dcb9 163c
00000050: 403a 7d3c 7483 793c 364f a5bc 1449 63bc
00000060: 90fb 2c3c b872 cb3c 2455 833c 38b1 afbc
00000070: 80e3 69b9 78eb 97bb e829 423c 98fe 6c3c
00000080: aee2 84bc 3411 fbbb acd9 3b3c 0db5 7dbc
00000090: d0c5 273b 58fb 5a3c 8eac 933c 4a6b 14bc
000000a0: e24f b9bc 92d9 57bc 0a2d 953c 5298 ab3c
000000b0: 98e3 0fbc 149d 923b 5cd2 b8bc b6e8 21bc
000000c0: 8488 b6bb ae82 5abc 8076 ab3b f822 6f3b
000000d0: 8c46 9d3b 0052 8839 3c2c d3bb d82a b83c
000000e0: 40e1 ad39 b855 bf3b b8c7 4abc 4c05 3b3c
000000f0: 6d3d bebc 6054 da3b f4b5 76bc 30f3 b73c
00000100: f87d 29bc 8a9d 8f3c 60f6 213b 9091 adbb
00000110: 4215 a73c 40b0 d839 08c5 cc3c 7864 ff3b
00000120: e779 5fbc fca1 dfbb 7842 b0bc b864 a63c
00000130: a0e5 b23c 5525 83bc d09b 94bb 595a 60bc
00000140: 087c 693b 502f a53c 4454 873c 5e65 78bc
00000150: 38f4 9e3c d06d 1c3c e011 f5ba 5c5a 5a3c
00000160: 0820 2a3c 4c3b b03c 1cc5 983c 5c3e b93c
00000170: 985c a03c 42a0 19bc 2f9a c0bc b6b7 a9bc
00000180: fec0 93bc 1888 31bb bacb aabc acf6 8cbb
00000190: a27f 983c f2c2 a8bc 2cdf a7bb 4e9e c43c
000001a0: 976c 78bc 0410 bf3c 234c 9ebc f0e1 b13c
000001b0: 30d0 043b ad3b 46bc 809a 6eba 4803 75bc
000001c0: 15a5 c1bc f084 22bb e06c 573b ec45 4f3c
000001d0: 5c44 833c 54a4 993c 83f0 6dbc 78db 523c
000001e0: 3a60 a43c 5056 eb3a 70ed 233b 4cfa 093c
000001f0: 602b 24ba 643e f5bb e4d2 bd3c b131 3fbc
