backend/ml_model/weather/best_weather_model.pth (torch, 211474 bytes, 10 tensors)

lstm.weight_ih_l0 f4 [256, 3]
0.13970436 0.024667606 0.03461899 0.081961155 -0.020394446 -0.02705536 -0.037411425 0.061830703
0.1453159 -0.0686024 0.06472542 0.061990924 0.12491019 0.0026924328 0.09979201 -0.031379484
-0.0010902681 0.05268106 -0.08419198 -0.039454587 -0.05193208 -0.009547373 -0.12722932 0.12797864
-0.05259226 -0.15350121 0.046061423 -0.09266988 -0.06382126 -0.110309 0.09997673 -0.15581225
0.112613656 0.08159364 -0.042789184 0.15513152 0.0033661865 0.008877923 0.038698204 -0.033625837
-0.002608128 -0.002249509 0.10160111 0.16031004 0.12443901 -0.022340711 0.09415811 0.056108456
0.1179564 -0.22634798 -0.03979171 -0.081691995 0.03878859 0.033703692 0.12155669 0.17724717
0.084462695 0.012430158 0.11399357 -0.090793386 0.05044507 -0.1515787 0.09942254 -0.06892919
-0.023701232 -0.039800312 0.09847844 -0.10467609 -0.059384502 -0.04075796 0.21624932 0.038631458
0.14947586 -0.03318028 -0.107495815 -0.10103174 -0.060455844 0.042122267 -0.033177126 0.009486807
-0.09354261 -0.03355992 0.0068255193 0.0562985 0.08752923 -0.08443378 0.11308525 -0.056865547
-0.10913028 0.094787695 0.03403194 -0.10806932 0.11362326 0.08081936 -0.14986172 -0.03971443
0.15335031 -0.051860835 -0.010908626 -0.12596202 -0.11975791 0.04285913 -0.0042609964 -0.20554051
0.06300788 -0.08316673 -0.13269436 -0.055008467 -0.05325217 0.01015675 0.15840632 0.037645694
-0.09386626 -0.062414605 -0.08244754 -0.11418904 0.063730605 -0.0858019 0.03510048 -0.07043549
-0.038560413 -0.08410987 -0.04611601 -0.06322283 -0.04192301 -0.07239788 -0.076045536 -0.1415562
0.08681942 -0.008489149 0.06701045 0.06373513 -0.09415067 0.03083105 -0.0012193604 -0.07293578
-0.061247308 -0.18030854 0.067376286 -0.109011054 0.1273645 -0.12896532 0.12652595 -0.16081339
-0.008304139 -0.03152123 0.104222886 0.17799078 0.060512878 -0.012517168 0.08397075 -0.09630927
0.06662841 -0.08442236 0.20109601 -0.117736414 0.056933913 0.06805368 0.025092097 -0.09588577
0.1203054 -0.004022312 0.014088222 -0.106106654 0.032045733 -0.02914077 -0.13370116 0.136046
-0.0022102816 -0.20881444 -0.033592306 0.043009702 -0.046667453 0.04883481 -0.025564699 -0.09962035
-0.024846917 0.08833737 -0.011112579 -0.04428265 0.060920443 0.019510884 0.089953005 -0.024404164
-0.008984704 0.117300116 0.06383579 -0.07262655 0.016199538 0.035836525 0.036266837 -0.02756961
0.035755243 0.11827801 -0.02897493 -0.07966899 0.01949594 -0.07806035 0.025100691 0.07872641
-0.11605201 -0.020281354 0.07021332 0.09374192 -0.020668415 -0.062259533 -0.080528736 -0.13826537
-0.15458533 0.065859005 0.049163308 -0.01466588 -0.10876677 -0.09771159 -0.09357412 0.13566795
0.025092721 -0.10574549 0.10076836 -0.07790903 -0.19032001 0.09980511 -0.079587005 -0.08282064
-0.118327804 0.11069051 0.09007369 0.078411944 -0.13290794 -0.19045047 -0.10872762 0.08788553
0.01285545 0.12397646 0.09228396 0.014513523 0.028059227 -0.09797067 -0.0876689 -0.123024926
0.057964783 -0.1800982 0.025656058 -0.11214371 0.09602619 -0.1630602 -0.0866337 0.22671536
-0.08134911 0.025753181 -0.005446375 -0.16403233 -0.026198741 -0.09035077 -0.020845488 -0.16250022
00000000: a90e 0f3e b813 ca3c a4cc 0d3d 40db a73d
00000010: 4112 a7bc 34a3 ddbc b93c 19bd 3142 7d3d
00000020: b1cd 143e 6a7f 8cbd c38e 843d 32ea 7d3d
00000030: ead0 ff3d 8773 303b c15f cc3d c687 00bd
00000040: 54e7 8eba 18c8 573d d86c acbd 229b 21bd
00000050: bcb6 54bd 966c 1cbc 6748 02be d50c 033e
00000060: fb6a 57bd 6c2f 1dbe e7aa 3c3d b5c9 bdbd
00000070: b9b4 82bd afe9 e1bd 9ac0 cc3d 3f8d 1fbe
00000080: fda1 e63d 911a a73d b643 2fbd ccda 1e3e
00000090: 3d9b 5c3b b574 113c 0282 1e3d 3fbb 09bd
000000a0: 20ed 2abb 806c 13bb 3e14 d03d 5128 243e
000000b0: e1d9 fe3d de03 b7bc f8d5 c03d fbd1 653d
000000c0: 2093 f13d c4c7 67be a2fc 22bd 224e a7bd
000000d0: c9e0 1e3d e20c 0a3d b7f2 f83d 4880 353e
000000e0: c7fa ac3d dda7 4b3c 7675 e93d e2f1 b9bd
000000f0: 7d9f 4e3d 7237 1bbe 0b9e cb3d bf2a 8dbd
00000100: 1629 c2bc a705 23bd 10af c93d 6b60 d6bd
00000110: 2a3d 73bd d2f1 26bd 7670 5d3e 053c 1e3d
00000120: 3310 193e 0ce8 07bd c426 dcbd bbe9 cebd
00000130: 8ca0 77bd 6688 2c3d bde4 07bd 8d6e 1b3c
00000140: 4593 bfbd 2076 09bd 9ba8 df3b 4299 663d
00000150: 8642 b33d 9eeb acbd 3d99 e73d d9eb 68bd
00000160: b27f dfbd 0d20 c23d 1365 0b3d 7353 ddbd
00000170: 50b3 e83d 9f84 a53d 5a75 19be 99ab 22bd
00000180: dd07 1d3e 076c 54bd 18ba 32bc 30fc 00be
00000190: a343 f5bd 0e8d 2f3d d49f 8bbb 3679 52be
000001a0: 460a 813d 5253 aabd 08e1 07be 8f50 61bd
000001b0: f31e 5abd 7f68 263c 4435 223e 5f32 1a3d
000001c0: f43c c0bd 75a6 7fbd 41da a8bd f2db e9bd
000001d0: 3185 823d e8b8 afbd 85c5 0f3d 7b40 90bd
000001e0: 86f1 1dbd cc41 acbd 24e4 3cbd f97a 81bd
000001f0: 76b7 2bbd 5745 94bd c3bd 9bbd 1cf4 10be
00000200: 61ce b13d 1216 0bbc c63c 893d 9087 823d
00000210: 11d2 c0bd 6691 fc3c f2d2 9fba 5b5f 95bd
00000220: 75de 7abd cda2 38be 94fc 893d 3041 dfbd
00000230: d76b 023e 7c0f 04be 0590 013e 44ac 24be
00000240: 150e 08bc 681c 01bd cf72 d53d 3743 363e
00000250: 5adc 773d cf14 4dbc dbf8 ab3d cb3d c5bd
00000260: 7a74 883d a1e5 acbd 1dec 4d3e ca1f f1bd
00000270: 8933 693d ba5f 8b3d f18d cd3c c25f c4bd
00000280: ad62 f63d 99cd 83bb 49d2 663c 724e d9bd
00000290: 6342 033d a0b8 eebc f5e8 08be a54f 0b3e
000002a0: 5fda 10bb 74d3 55be 1698 09bd f12a 303d
000002b0: 5f26 3fbd 0207 483d 0f6d d1bc c105 ccbd
000002c0: c38b cbbc 39ea b43d 8911 36bc b961 35bd
000002d0: b787 793d 4ad5 9f3c 4839 b83d 3eeb c7bc
000002e0: 9434 13bc 0b3b f03d 57bc 823d 3bbd 94bd
000002f0: e5b4 843c 52c9 123d 898c 143d aad9 e1bc
00000300: 1774 123d be3b f23d d55c edbc 7f29 a3bd
00000310: f3b5 9f3c 1bde 9fbd f79f cd3c 503b a13d
00000320: adac edbd 1525 a6bc 00cc 8f3d c4fb bf3d
00000330: cf50 a9bc da03 7fbd 40ec a4bd 7095 0dbe
00000340: 9e4b 1ebe 16e1 863d 775f 493d 2949 70bc
00000350: 1dc1 debd 041d c8bd caa3 bfbd 8aec 0a3e
00000360: 408f cd3c 1791 d8bd a45f ce3d c58e 9fbd
00000370: 40e3 42be 9f66 cc3d 83fe a2bd de9d a9bd
00000380: d955 f2bd b5b1 e23d 8e78 b83d 7196 a03d
00000390: 0519 08be 7305 43be 96ac debd 54fd b33d
000003a0: aa9f 523c 5fe7 fd3d 5fff bc3d 21ca 6d3c
000003b0: 77dc e53c d9a4 c8bd c18b b3bd 7ef4 fbbd
000003c0: 7b6c 6d3d aa6b 38be a72c d23c 9aab e5bd
000003d0: 61a9 c43d 41f9 26be 026d b1bd 1228 683e
000003e0: 5d9a a6bd 56f8 d23c 8177 b2bb 17f8 27be
000003f0: be9e d6bc d309 b9bd 28c4 aabc 7566 26be

lstm.weight_hh_l0 f4 [256, 64]
-0.07745244 0.23786606 0.033227537 -0.076260984 -0.06683706 0.020421758 0.06192944 0.015004694
-0.08026185 -0.046076372 0.04888948 -0.041087903 0.09634666 -0.07543083 -0.091381654 0.031196812
-0.0553561 -0.35748973 0.07662716 -0.020248497 -0.09050575 0.0685974 -0.018744703 0.080962315
0.14602605 -0.0021419665 -0.017403128 -0.17248686 -0.045191064 0.04115547 -0.04086209 0.15874888
-0.0346642 0.1003642 -0.15781705 0.014542509 0.008760094 -0.11655502 0.031871203 -0.12465283
0.0041595288 -0.14728798 -0.18886748 0.015182677 -0.07461733 0.14197306 0.09731158 0.07928663
0.030026732 0.078222714 -0.08334442 0.070827685 0.20498824 0.29084545 -0.09313076 -0.023906637
-0.054173414 0.024073042 0.19230989 -0.07429441 0.042051412 -0.03389654 0.05410995 0.12765847
-0.056106348 -0.04222185 -0.11101203 0.07068836 -0.09634997 -0.037041724 0.021486543 -0.06872941
0.034288254 -0.115507774 -0.10635489 -0.116420545 -0.03136491 -0.039474156 -0.029949063 -0.023231827
0.11087691 0.03610002 0.07770954 -0.082915075 -0.110917985 0.055418618 -0.031780276 0.034958452
0.11642454 0.07255195 0.11463024 0.08642309 0.025603775 -0.028630057 0.11867329 -0.071205
-0.07300955 0.100204304 0.08122535 0.03583844 0.04222346 -0.110605575 -0.045535993 0.07815872
0.03825247 -0.0039511896 -0.036329575 -0.032180943 0.038471658 0.015829872 0.10412095 -0.0005913924
0.050775513 0.00088508613 -0.0054975236 0.024352152 0.112721816 0.12837453 0.09613963 -0.05969121
-0.06755474 0.047195166 0.008425956 -0.023232805 -0.03182625 0.00950832 0.07890457 0.08845894
-0.06031956 -0.020153506 -0.026754288 -0.07634864 0.10468361 0.06010899 0.11048469 0.008767903
0.030214638 0.049520325 -0.113873616 0.012654335 0.007172074 -0.07117025 -0.16327766 0.09419119
0.11205317 0.009315712 0.1405805 -0.06389964 -0.031652767 0.044877265 -0.06060448 -0.016168037
-0.07192018 0.06383482 -0.2673346 -0.052395724 0.16503276 0.0005965682 -0.024782568 0.06959432
-0.04700457 -0.0075018983 0.096630424 -0.058916926 -0.06357632 -0.10148011 -0.057305124 -0.13794842
-0.08828024 0.017333498 -0.0009368977 -0.05828606 -0.12315273 -0.018539356 -0.033235222 -0.027081687
-0.14076003 0.053960934 -0.0882031 -0.10752895 -0.051080454 0.105757765 -0.06977849 -0.071681276
0.07722825 0.094035596 0.15466212 -0.13532785 -0.10213519 -0.034450732 0.10285637 0.08423019
-0.09238132 0.03246193 -0.11277417 -0.04937985 -0.004922593 0.16687815 0.067192435 0.011259919
0.063772015 -0.0866057 0.08380385 0.07454955 0.055951897 -0.081389524 0.1009761 -0.0656623
-0.0053861463 0.08369926 0.13026026 0.105846025 -0.015885739 -0.070961714 0.039291423 0.091707334
-0.14854245 0.01606312 -0.15627512 0.04676332 0.046003696 -0.06697711 0.026281347 0.098214924
0.01746665 -0.07468508 0.06601401 -0.08406225 -0.02294236 -0.030661516 0.019845555 -0.14648384
0.021038545 -0.066914275 -0.09575969 0.052277703 -0.097055145 -0.028481552 -0.07459822 -0.026770987
-0.09396593 0.0057720323 0.054039583 -0.062558725 -0.04819238 0.049989846 -0.009952225 0.13892893
-0.12201557 0.08122189 0.018624516 0.03062697 -0.08817033 -0.01448296 -0.07330088 -0.11981146
00000000: 639f 9ebd 2993 733e 9919 083d b82e 9cbd
00000010: dee1 88bd 884b a73c b9a9 7d3d 40d6 753c
00000020: 5360 a4bd 94ba 3cbd 5640 483d ca4b 28bd
00000030: 6651 c53d 7b7b 9abd 4e26 bbbd 7590 ff3c
00000040: 14bd 62bd e508 b7be b3ee 9c3d 2de0 a5bc
00000050: 145b b9bd cb7c 8c3d 7e8e 99bc 92cf a53d
00000060: da87 153e 3c60 0cbb 0191 8ebc 65a0 30be
00000070: 441a 39bd a392 283d 025f 27bd 118f 223e
00000080: 0cfc 0dbd bf8b cd3d cb9a 21be b443 6e3c
00000090: 7f86 0f3c 66b4 eebd 618b 023d fc49 ffbd
000000a0: a84c 883b a9d2 16be 7a66 41be c3c0 783c
000000b0: f9d0 98bd 6361 113e 4b4b c73d 0761 a23d
000000c0: 9ffa f53c 3b33 a03d 7bb0 aabd 1b0e 913d
000000d0: 70e8 513e b2e9 943e 57bb bebd dad7 c3bc
000000e0: f1e4 5dbd d434 c53c e2ec 443e ab27 98bd
000000f0: 1a3e 2c3d 19d7 0abd 65a2 5d3d e7b8 023e
00000100: c5cf 65bd d2f0 2cbd 465a e3bd 0fc5 903d
00000110: 2253 c5bd 10b9 17bd 8c04 b03c 01c2 8cbd
00000120: d771 0c3d 578f ecbd 98d0 d9bd e56d eebd
00000130: 7e78 00bd a7af 21bd bd57 f5bc ac50 bebc
00000140: 6f13 e33d 9ddd 133d 2e26 9f3d 61cf a9bd
00000150: f828 e3bd a2fe 623d 092c 02bd 9830 0f3d
00000160: fd6f ee3d 1e96 943d 42c3 ea3d 97fe b03d
00000170: 02bf d13c 9589 eabc fb0a f33d edd3 91bd
00000180: 0886 95bd ea37 cd3d 7a59 a63d 54cb 123d
00000190: 82f2 2c3d 2d85 e2bd f383 3abd ae11 a03d
000001a0: 9fae 1c3d fb78 81bb 52ce 14bd 2ad0 03bd
000001b0: 7594 1d3d a6ad 813c 5d3d d53d ac07 1bba
000001c0: fcf9 4f3d 2005 683a 9224 b4bb 2a7e c73c
000001d0: b2da e63d 9d74 033e dbe4 c43d c57e 74bd
000001e0: 245a 8abd b84f 413d 050d 0a3c b952 bebc
000001f0: 3e5c 02bd c9c8 1b3c b898 a13d f629 b53d
00000200: a511 77bd f718 a5bc cf2b dbbc ad5c 9cbd
00000210: 5c64 d63d d834 763d cc45 e23d 40a7 0f3c
00000220: b084 f73c d3d5 4a3d 9236 e9bd 2154 4f3c
00000230: b803 eb3b b5c1 91bd 4232 27be 50e7 c03d
00000240: 227c e53d eea0 183c 56f4 0f3e d1dd 82bd
00000250: 55a6 01bd 39d1 373d 673c 78bd d572 84bc
00000260: e34a 93bd d5bb 823d 15e0 88be e69c 56bd
00000270: 59fe 283e 0463 1c3a d004 cbbc 7887 8e3d
00000280: dd87 40bd 7cd2 f5bb 2ce6 c53d e052 71bd
00000290: 4d34 82bd ced4 cfbd c7b8 6abd 5a42 0dbe
000002a0: 45cc b4bd fbfe 8d3c 249a 75ba 5dbd 6ebd
000002b0: 8037 fcbd d9df 97bc a821 08bd 6ada ddbc
000002c0: 6623 10be 2406 5d3d d4a3 b4bd 2338 dcbd
000002d0: bd39 51bd 8797 d83d 06e8 8ebd a2cd 92bd
000002e0: d829 9e3d bc95 c03d bf5f 1e3e 6293 0abe
000002f0: 412c d1bd 361c 0dbd 5ca6 d23d e180 ac3d
00000300: 6b32 bdbd cdf6 043d 25f6 e6bd 8742 4abd
00000310: b44d a1bb 1be2 2a3e 309c 893d 867b 383c
00000320: e79a 823d 545e b1bd 5aa1 ab3d 6fad 983d
00000330: d12d 653d 8daf a6bd 8fcc ce3d f579 86bd
00000340: 457e b0bb 856a ab3d f262 053e cdc5 d83d
00000350: cf22 82bc 6054 91bd 0bf0 203d 0ed1 bb3d
00000360: 831b 18be ce96 833c 9606 20be e58a 3f3d
00000370: 5f6e 3c3d 4c2b 89bd fb4b d73c e824 c93d
00000380: 3816 8f3c 7ef4 98bd 5a32 873d d428 acbd
00000390: 9ef1 bbbc dc2d fbbc 2593 a23c dcff 15be
000003a0: 0759 ac3c 5a0a 89bd a81d c4bd 2521 563d
000003b0: d9c4 c6bd 2552 e9bc f4c6 98bd d44e dbbc
000003c0: 3671 c0bd 5123 bd3b 9c58 5d3d ca1e 80bd
000003d0: 6065 45bd 27c2 4c3d a80e 23bc 6343 0e3e
000003e0: 4de3 f9bd aa57 a63d 7192 983c 69e5 fa3c
000003f0: a592 b4bd f049 6dbc c61e 96bd b65f f5bd

lstm.bias_ih_l0 f4 [256]
0.0647583 -0.0542667 -0.059329104 0.08601387 -0.039975997 -0.043423157 0.08060573 -0.047649596
-0.07835614 0.027652785 0.060235266 -0.082483314 0.058383383 -0.09080186 0.093894154 0.101920605
0.12728539 0.16127382 0.075640604 -0.008679226 0.04670801 0.07148881 -0.06448933 -0.050277952
-0.0014762534 0.04836326 0.03485351 -0.0079065915 0.12860486 -0.057363667 0.011139756 0.05329528
-0.059912927 0.12801075 -0.04349504 0.07625199 0.0253277 -0.027922846 0.11425494 0.033095695
0.030900266 0.11892178 -0.06907118 0.13285479 0.017925827 -0.07425975 0.09201253 -0.00021975461
-0.06974972 -0.024274575 0.082959026 0.05383466 0.0028668654 0.1238567 0.06782176 -0.10393343
0.01223529 0.13231736 -0.0018048651 0.006398374 0.1440832 -0.0045207227 0.14345366 0.16750765
0.12680893 0.035269063 0.022804707 0.048151176 -0.12041235 -0.01979374 -0.06202484 -0.013893386
-0.061924975 -0.01852445 -0.07876449 -0.07692826 0.04638085 0.11935927 0.006682935 -0.08916409
0.020219317 0.00028287186 -0.07313947 0.111302055 0.073667906 0.10919982 0.025501544 -0.06435318
0.16518219 -0.0929775 -0.008499736 -0.058809087 0.053507503 0.035043143 -0.069569886 0.12307558
-0.055775177 0.006597832 0.06021231 0.046901878 0.113135085 0.010025001 0.07985453 0.054462794
0.014788249 -0.081336506 0.08982854 0.029671498 0.05673624 0.0119726835 0.07768347 -0.092867136
0.10396612 0.110949054 0.06774052 -0.0016887074 -0.10773472 0.006627446 -0.09318456 -0.041356128
0.114276394 -0.0039266245 0.19179988 -0.068077385 -0.045749053 -0.098087214 0.06383367 0.13038613
0.03506826 0.06842963 0.099804856 -0.122891076 -0.0016020782 0.11179791 0.09143018 0.008508774
-0.08352288 -0.09849621 0.10229693 -0.07053019 0.027385034 -0.002249254 -0.079488136 0.046360277
0.086599045 -0.04866535 0.019261505 0.082743526 0.000523496 0.032805048 0.033478413 0.12404174
-0.009572706 0.07081782 0.013379573 0.0016726489 -0.052029572 0.108257316 0.07841414 0.012581322
-0.016317511 0.006484608 -0.07507963 -0.07018694 0.09493887 -0.084895924 -0.050297152 -0.09747365
-0.09420635 -0.064461276 0.014399579 -0.12161293 -0.070853464 -0.081961446 0.024058541 -0.019041918
0.11998484 -0.16545978 -0.12028646 -0.0451187 0.08746027 0.12434641 0.016582021 -0.05449498
0.07618909 -0.019550571 0.06961327 -0.0275822 -0.029393438 -0.021816269 0.049941078 -0.036134597
0.04452954 0.07025851 0.0907551 0.0824926 -0.0028342884 0.05475036 -0.040643726 0.12571134
0.09096606 -0.09557301 0.066600315 0.14194521 0.069054104 -0.09308882 0.13277587 0.036909275
0.056719325 0.09594701 0.20200363 0.09574858 -0.08697725 0.07707498 0.021147344 -0.07841614
-0.012428999 0.05624875 0.22284816 0.085515715 0.110161215 -0.08238474 -0.036341976 -0.04400964
-0.08631421 -0.06434589 -0.072075315 -0.10901355 0.042935736 -0.021743082 0.021049198 0.01504887
0.01869425 -0.11281842 -0.07455706 -0.08167085 0.14794046 0.014401576 -0.08190682 -0.0090495525
0.025928212 -0.064715885 0.1090997 0.092132084 0.046623047 -0.0034117883 0.107127495 0.045042563
-0.0004838421 0.045206945 -0.06741835 0.044443805 0.07054122 0.099094875 0.088965185 0.1752389
00000000: 00a0 843d c246 5ebd 1303 73bd 0a28 b03d
00000010: dfbd 23bd 7bdc 31bd 9e14 a53d 392c 43bd
00000020: 2f79 a0bd 1888 e23c 41b9 763d 03ed a8bd
00000030: 6a23 6f3d 53f6 b9bd 944b c03d c0bb d03d
00000040: 1a57 023e f724 253e 76e9 9a3d 5033 0ebc
00000050: e650 3f3d ba68 923d fb12 84bd 41f0 4dbd
00000060: d87e c1ba 8e18 463d 8ec2 0e3d a68a 01bc
00000070: feb0 033e 2af6 6abd 8683 363c 274c 5a3d
00000080: 4267 75bd 4015 033e db27 32bd 012a 9c3d
00000090: 097c cf3c 74be e4bc 7efe e93d 5a8f 073d
000000a0: 8e22 fd3c 438d f33d 3175 8dbd 160b 083e
000000b0: 2fd9 923c 7f15 98bd 1171 bc3d ee6d 66b9
000000c0: f1d8 8ebd 79db c6bc 6ce6 a93d bc81 5c3d
000000d0: 05e2 3b3b 95a8 fd3d 23e6 8a3d 0ddb d4bd
000000e0: 8776 483c 347e 073e 3991 ecba 74a9 d13b
000000f0: 8c8a 133e 9222 94bb 84e5 123e 2087 2b3e
00000100: 33da 013e 4b76 103d f0d0 ba3c 2b3a 453d
00000110: c09a f6bd 7b26 a2bc c20d 7ebd 16a1 63bc
00000120: 0ba5 7dbd 96c0 97bc 474f a1bd 908c 9dbd
00000130: d9f9 3d3d a272 f43d 86fc da3b aa9b b6bd
00000140: fba2 a53c 6b4e 9439 25ca 95bd 55f2 e33d
00000150: 33df 963d 28a4 df3d 9de8 d03c 9acb 83bd
00000160: 8525 293e fd6a bebd 7a42 0bbc cce1 70bd
00000170: af2a 5b3d 6689 0f3d a87a 8ebd 0d0f fc3d
00000180: 8374 64bd a032 d83b 2fa1 763d 2f1c 403d
00000190: 5eb3 e73d e73f 243c c68a a33d 6114 5f3d
000001a0: 694a 723c c193 a6bd 07f8 b73d a411 f33c
000001b0: 4264 683d 1329 443c 8318 9f3d 2031 bebd
000001c0: 30ec d43d 4239 e33d 8bbb 8a3d 9e57 ddba
000001d0: 05a4 dcbd 0c2b d93b 8cd7 bebd 0b65 29bd
000001e0: be09 ea3d eaaa 80bb 3067 443e 286c 8bbd
000001f0: 5c63 3bbd f3e1 c8bd 3abb 823d f183 053e
00000200: bca3 0f3d d524 8c3d 7d66 cc3d 51ae fbbd
00000210: d3fc d1ba 4df6 e43d bf3f bb3d 6368 0b3c
00000220: 0b0e abbd 62b8 c9bd 0e81 d13d 2272 90bd
00000230: 9456 e03c 3868 13bb adca a2bd 46e4 3d3d
00000240: d75a b13d 5155 47bd 4eca 9d3c 7075 a93d
00000250: 393b 093a 965e 063d a920 093d 9909 fe3d
00000260: d7d6 1cbc ef08 913d ff35 5b3c c93c db3a
00000270: f61c 55bd 03b6 dd3d 9897 a03d e421 4e3c
00000280: 4dac 85bc d67c d43b 59c3 99bd 2cbe 8fbd
00000290: 4f6f c23d eadd adbd 6304 4ebd 44a0 c7bd
000002a0: 42ef c0bd 4604 84bd 36ec 6b3c 3310 f9bd
000002b0: 9f1b 91bd 67db a7bd 6b16 c53c ccfd 9bbc
000002c0: 9dba f53d 4a6e 29be bf58 f6bd 63ce 38bd
000002d0: 5f1e b33d 55a9 fe3d 05d7 873c 2136 5fbd
000002e0: 0709 9c3d 8528 a0bc 6791 8e3d 11f4 e1bc
000002f0: 82ca f0bc 08b8 b2bc 048f 4c3d df01 14bd
00000300: 9b64 363d b2e3 8f3d cfdd b93d e1f1 a83d
00000310: 78bf 39bb ea41 603d 097a 26bd 79ba 003e
00000320: 6a4c ba3d c8bb c3bd bf65 883d 165a 113e
00000330: 3d6c 8d3d 5aa5 bebd 66f6 073e 2e2e 173d
00000340: 8652 683d de7f c43d 0ada 4e3e d517 c43d
00000350: 2121 b2bd 7dd9 9d3d 323d ad3c a498 a0bd
00000360: 00a3 4bbc 1765 663d 4f32 643e dd22 af3d
00000370: 349c e13d 55b9 a8bd 53db 14bd 7443 34bd
00000380: 81c5 b0bd c7c7 83bd 399c 93bd 7f42 dfbd
00000390: 62dd 2f3d 8c1e b2bc 5e6f ac3c 898f 763c
000003a0: af24 993c 580d e7bd 5fb1 98bd 0c43 a7bd
000003b0: b47d 173e 96f4 6b3c c3be a7bd 9344 14bc
000003c0: 6767 d43c c389 84bd aa6f df3d bfaf bc3d
000003d0: cff7 3e3d 4f98 5fbb a965 db3d 8d7e 383d
000003e0: 30ac fdb9 eb2a 393d a212 8abd b50a 363d
000003f0: ea77 903d 41f2 ca3d 6133 b63d d471 333e

lstm.bias_hh_l0 f4 [256]
0.006193816 0.037673086 -0.08686612 0.121328175 0.030811725 -0.08997327 0.09788051 0.030619333
-0.017699432 0.1117026 -0.059548948 -0.0311912 -0.0005095189 0.019912299 -0.055980623 0.06056941
-0.03572891 -0.028169278 0.026782855 -0.049780034 0.04152698 0.0888855 -0.039192624 -0.0055487547
0.03922981 -0.104804024 -0.13661204 -0.03351527 -0.0677381 0.053170286 0.12653567 0.111960694
-0.046827376 0.08379072 0.12757477 -0.024214612 -0.020466277 -0.075834565 -0.011599974 -0.0014203845
0.040193383 -0.113416456 0.03667212 0.054263048 0.048515968 0.007983088 0.14113578 0.09240358
-0.06300726 -0.019585326 0.059823316 0.05351592 -0.09628105 -0.025777709 -0.008702146 -0.025560327
-0.0043011163 0.07412391 -0.048372865 -0.049114972 0.09134001 -0.06630433 0.004888096 -0.05405163
-0.069345884 0.04877012 -0.017627576 0.12088127 0.118013315 -0.07395573 -0.058791414 0.032931026
-0.015136377 -0.09275798 -0.068080075 -0.053076457 0.018973285 0.050451573 0.1340642 0.09914604
-0.003775484 0.14209884 -0.023078434 -0.1058692 -0.065079674 0.073833585 0.11082041 -0.0903991
0.07900336 -0.022196852 0.18733276 -0.025321934 -0.08821502 0.04383853 -0.043414537 -0.0046205157
-0.019948576 0.12037363 -0.018465176 -0.13385111 -0.06503422 0.021560166 0.08593728 0.094619
-0.1250556 0.010317811 0.1017052 -0.038864207 0.089821704 0.12544826 0.13215725 0.048588745
-0.11810817 -0.093983166 0.09332029 -0.03738018 0.11602562 0.1207688 -0.10486877 0.07498827
-0.08789936 -0.08012282 0.15525901 0.10748905 0.07297378 0.06015063 0.030820996 0.16495503
-0.14526343 0.021640083 0.039419517 -0.04580587 -0.07807738 0.049608126 -0.023049533 -0.026294796
-0.050699286 0.0033004093 -0.06288835 -0.14841765 0.014555517 0.0134552615 -0.074588425 0.08338015
-0.0877436 -0.035924096 -0.1490135 -0.014233331 0.10942299 0.014619968 0.06102139 0.11704949
0.0698226 0.06648698 0.051358357 0.026741145 -0.058585264 0.11676832 0.014809622 0.0027607812
-0.14275797 0.044432193 0.09105068 -0.056510232 0.10928164 0.1432359 -0.03407236 -0.060649913
0.014943761 -0.11682513 -0.09602872 -0.03863706 -0.018057086 0.12971754 0.10202 -0.020507999
-0.095063485 -0.0072140247 -0.021658247 -0.07328191 0.073491044 0.08870909 -0.015143344 0.08597003
-0.0502274 -0.12844852 0.11614584 0.10241867 -0.04941337 -0.0696979 -0.14604522 0.084456325
0.06633748 -0.086348325 -0.08760623 0.08539467 -0.07720227 0.053415947 0.11616466 -0.017159399
0.09058513 0.072516695 -0.022283046 -0.05780464 -0.03912546 -0.11610106 0.07046896 0.059054807
0.05784496 0.10836418 0.09626868 0.07728035 0.13309869 0.14189836 0.19820604 -0.0134108905
0.0522411 -0.0472016 0.16277508 0.12208662 0.054085527 -0.0033135193 0.045640957 -0.065159924
-0.08944393 -0.007852979 0.0056625796 -0.030741237 0.081111304 0.07589147 0.045885246 0.06609043
0.0030246703 0.02401329 -0.057578295 -0.048392482 0.075625755 0.0886032 0.029782115 0.15270293
0.12818457 -0.10676381 -0.0496132 0.04590016 0.010585436 0.060064156 -0.034209743 0.07912842
-0.08305158 0.038355496 -0.05838949 -0.026941022 0.10471898 0.08660289 -0.0604887 0.14045209
00000000: 7ff5 ca3b 184f 1a3d dde6 b1bd e87a f83d
00000010: df68 fc3c e843 b8bd 9475 c83d 65d5 fa3c
00000020: 66fe 90bc 55c4 e43d 99e9 73bd b084 ffbc
00000030: 3c91 05ba 1e1f a33c f04b 65bd a117 783d
00000040: 7a58 12bd 42c3 e6bc b867 db3c 26e6 4bbd
00000050: 3218 2a3d 9a09 b63d 7288 20bd 54d2 b5bb
00000060: 70af 203d 7ea3 d6bd 07e4 0bbe 4f47 09bd
00000070: 46ba 8abd 16c9 593d 9192 013e a64b e53d
00000080: 10ce 3fbd 789a ab3d f6a2 023e b95d c6bc
00000090: e5a8 a7bc 274f 9bbd d10d 3ebc 322c baba
000000a0: d1a1 243d e346 e8bd 8135 163d ee42 5e3d
000000b0: aeb8 463d 7fcb 023c e685 103e 173e bd3d
000000c0: f309 81bd 6871 a0bc 4b09 753d 8233 5b3d
000000d0: 002f c5bd c62b d3bc 7293 0ebc e463 d1bc
000000e0: 61f0 8cbb 47ce 973d a022 46bd c82c 49bd
000000f0: 7910 bb3d 91ca 87bd 522c a03b 3e65 5dbd
00000100: 3705 8ebd 2dc3 473d b567 90bc 9990 f73d
00000110: f7b0 f13d 1a76 97bd 44cf 70bd afe2 063d
00000120: 91fe 77bc e5f7 bdbd 916d 8bbd b366 59bd
00000130: dd6d 9b3c 4fa6 4e3d 2048 093e 140d cb3d
00000140: 1c6e 77bb 5c82 113e fc0e bdbc f3d1 d8bd
00000150: 7e48 85bd 1036 973d d0f5 e23d 2a23 b9bd
00000160: 83cc a13d 2cd6 b5bc 29d4 3f3e f26f cfbc
00000170: 14aa b4bd 0890 333d 71d3 31bd b267 97bb
00000180: 326b a3bc 7386 f63d 4844 97bc 4410 09be
00000190: a930 85bd f29e b03c e2ff af3d 9bc7 c13d
000001a0: 930e 00be 090c 293c d14a d03d 1330 1fbd
000001b0: 71f4 b73d 8275 003e 3b54 073e fe04 473d
000001c0: b2e2 f1bd 3f7a c0bd b51e bf3d f61b 19bd
000001d0: d79e ed3d a255 f73d 70c5 d6bd 7393 993d
000001e0: 9404 b4bd 6f17 a4bd 38fc 1e3e 3823 dc3d
000001f0: 4773 953d 8260 763d 507c fc3c f9e9 283e
00000200: f0bf 14be 8b46 b13c 5c76 213d f09e 3bbd
00000210: 09e7 9fbd e431 4b3d 60d2 bcbc 2f68 d7bc
00000220: 0eaa 4fbd ae4b 583b 9bcb 80bd ccfa 17be
00000230: 437a 6e3c 7573 5c3c d1c1 98bd 36c3 aa3d
00000240: ebb2 b3bd 2525 13bd ff96 18be eb32 69bc
00000250: 2919 e03d 9788 6f3c 91f1 793d a5b7 ef3d
00000260: 27ff 8e3d 532a 883d 245d 523d 3f10 db3c
00000270: 1af7 6fbd 3b24 ef3d 0fa4 723c 39ee 343b
00000280: 252f 12be 88fe 353d c778 ba3d 4677 67bd
00000290: 0dcf df3d 6fac 123e 758f 0bbd 0b6c 78bd
000002a0: add6 743c 0442 efbd b5aa c4bd e541 1ebd
000002b0: 74ec 93bc add4 043e ddef d03d 6400 a8bc
000002c0: a5b0 c2bd a063 ecbb a36c b1bc d314 96bd
000002d0: 7982 963d 1dad b53d ca1b 78bc 0e11 b03d
000002e0: 3fbb 4dbd 0288 03be dfdd ed3d e1c0 d13d
000002f0: ad65 4abd c6bd 8ebd e18c 15be 70f7 ac3d
00000300: f2db 873d 64d7 b0bd e56a b3bd 67e3 ae3d
00000310: 391c 9ebd aeca 5a3d bde7 ed3d de91 8cbc
00000320: b284 b93d a283 943d ef8a b6bc 8fc4 6cbd
00000330: 0542 20bd 64c6 edbd 0852 903d 74e3 713d
00000340: d6ee 6c3d 0aee dd3d 8428 c53d 2945 9e3d
00000350: 064b 083e ce4d 113e 86f6 4a3e 5ab9 5bbc
00000360: c4fa 553d 7756 41bd 83ae 263e 8d08 fa3d
00000370: c988 5d3d a127 59bb 03f2 3a3d 9172 85bd
00000380: 612e b7bd c8a9 00bc 298d b93b 0cd5 fbbc
00000390: af1d a63d fd6c 9b3d 2bf2 3b3d 6b5a 873d
000003a0: 8c39 463b 85b7 c43c 38d7 6bbd 3237 46bd
000003b0: ade1 9a3d 9875 b53d 9ff9 f33c 285e 1c3e
000003c0: d142 033e fca6 dabd 3637 4bbd ce01 3c3d
000003d0: 896e 2d3c d505 763d 841f 0cbd 150e a23d
000003e0: f216 aabd a71a 1d3d d129 6fbd 6bb3 dcbc
000003f0: e876 d63d db5c b13d 00c3 77bd acd2 0f3e

lstm.weight_ih_l1 f4 [256, 64]
-0.030927936 -0.049555242 0.08613388 -0.015357334 0.07064712 0.08859615 0.081184074 -0.05657115
0.109918326 0.051659834 0.07258065 -0.028467542 0.05699682 -0.05159097 0.04480681 -0.12232875
0.03544256 -0.06854294 0.047730707 -0.07322939 0.08357668 -0.14521134 0.06887214 -0.10233651
0.07062694 -0.045520764 -0.11778437 0.0547981 0.04721285 -0.16447017 -0.018273119 -0.06648756
0.02494646 -0.064430244 -0.064378604 -0.008718225 0.036288135 -0.044156235 0.04104824 -0.20397152
-0.08096097 0.090206854 -0.022404034 0.058753084 -0.06832679 0.13040029 0.025784766 0.06245465
0.024652617 -0.0011597874 -0.018881349 0.053448323 -0.05247197 0.12177738 -0.11873556 -0.0046362965
-0.060685452 -0.076485164 -0.13477932 0.062385935 0.0279645 0.089564264 0.082696415 0.10271361
-0.009228562 -0.07838517 0.11962513 -0.10093644 -0.12048234 0.030291408 0.029209167 0.024937836
-0.0974913 -0.17208554 0.036382087 -0.09484211 0.02493195 -0.03892203 0.10953664 -0.019991497
0.048894405 -0.05772471 -0.094955675 0.048397444 0.065899014 0.005004452 0.25204542 -0.065619044
-0.13556315 -0.06672954 0.10118176 -0.008550242 -0.009290771 -0.08917819 0.0367499 -0.043779135
0.042974062 0.07134221 0.02083984 -0.04773433 0.055713028 -0.051871758 0.07622705 0.17284857
-0.036622986 0.033069506 0.051381286 0.13081883 0.03955275 -0.009946284 0.07637992 0.056019433
0.03809678 -0.06608459 -0.064195506 -0.05739009 0.057109587 -0.11487313 0.13893044 0.13970557
-0.043542035 -0.029843565 -0.15577635 -0.042895347 -0.022835562 -0.09938894 0.06612453 -0.14451115
0.026451765 -0.0012232891 -0.14103718 -0.11264217 -0.04779796 0.16212265 0.052546754 -0.021772014
0.03363234 -0.041442286 0.07205658 0.051097155 0.13031222 -0.105388336 -0.0040692408 -0.1487471
0.0047048237 -0.17374164 0.042391613 -0.11635761 -0.07970404 0.077591315 0.08090243 -0.051686846
0.0043360624 0.13024643 0.060871154 0.059665024 -0.05037568 -0.11087278 0.1371933 -0.049616586
0.014063749 -0.0645507 -0.10936754 0.07589576 -0.055567756 -0.033396788 0.06367859 0.060544714
-0.04428265 0.027413277 -0.123775296 0.068568826 -0.01897862 -0.0345144 -0.13591705 0.00841322
0.045887653 0.05901792 0.09736759 0.10620047 0.045996033 -0.014542411 0.066901684 0.059378386
-0.07136201 0.09982581 -0.07918485 -0.02553472 0.16236636 0.095737986 -0.07660854 0.081984125
-0.03252589 -0.050830323 0.14654768 0.048107535 0.008757116 0.053110883 -0.096194975 -0.12619045
0.028939147 0.00936788 0.07549895 -0.018939616 -0.1557297 0.10256995 -0.051214937 -0.06556684
-0.031524625 -0.114783324 -0.03633132 0.11215702 0.084573634 0.13431324 -0.06592922 0.057330567
0.07404227 0.077993475 0.09899789 -0.115497164 -0.0660676 0.088028766 0.054214157 -0.06268025
-0.020894594 -0.12821408 -0.043563474 -0.07636967 -0.038936365 9.926807e-05 -0.09810736 0.0006423486
0.13264306 -0.035311576 0.07231234 -0.12853982 -0.0268523 -0.15261368 0.18449467 -0.013418143
-0.00020776436 -0.2374563 -0.06283077 -0.1769044 0.07185837 -0.11814077 0.068788275 0.04493775
-0.061727945 0.028782902 0.21236417 0.14581797 0.06728966 -0.11561536 -0.0792281 0.21978478
00000000: 955c fdbc 70fa 4abd f666 b03d 549d 7bbc
00000010: 70af 903d e671 b53d d643 a63d 26b7 67bd
00000020: dc1c e13d 4399 533d 2aa5 943d c334 e9bc
00000030: 7f75 693d 0e51 53bd 5887 373d 7f87 fabd
00000040: 382c 113d 3e60 8cbd 4681 433d 4af9 95bd
00000050: 402a ab3d 48b2 14be d60c 8d3d ce95 d1bd
00000060: dba4 903d fb73 3abd ef38 f1bd f973 603d
00000070: 4362 413d de6a 28be 82b1 95bc a12a 88bd
00000080: 855c cc3c 01f4 83bd eed8 83bd e3d6 0ebc
00000090: dea2 143d 2bdd 34bd 3322 283d e9dd 50be
000000a0: ddce a5bd 5fbe b83d aa88 b7bc 13a7 703d
000000b0: ebee 8bbd a787 053e 933a d33c 72d0 7f3d
000000c0: 49f4 c93c 0204 98ba 0fad 9abc a1ec 5a3d
000000d0: d9ec 56bd 6b66 f93d a12b f3bd 13ec 97bb
000000e0: 4f91 78bd 41a4 9cbd 9703 0abe 6588 7f3d
000000f0: cf15 e53c 786d b73d bd5c a93d 835b d23d
00000100: 6533 17bc 6788 a0bd 05fe f43d c4b7 cebd
00000110: 72bf f6bd b025 f83c 1048 ef3c 6f4a cc3c
00000120: 85a9 c7bd 3137 30be 6205 153d 953c c2bd
00000130: 173e cc3c b56c 1fbd bf54 e03d 35c5 a3bc
00000140: 8045 483d bf70 6cbd 1f78 c2bd 663c 463d
00000150: 10f6 863d 63fc a33b 190c 813e 4763 86bd
00000160: 11d1 0abe 7fa9 88bd 6238 cf3d 5016 0cbc
00000170: 5138 18bc 0ea3 b6bd 1087 163d c051 33bd
00000180: 9205 303d dd1b 923d 50b8 aa3c 1385 43bd
00000190: 5833 643d 7b77 54bd ed1c 9c3d 37ff 303e
000001a0: fc01 16bd e473 073d 2f75 523d 5ff5 053e
000001b0: 1002 223d bdf5 22bc 136d 9c3d a274 653d
000001c0: 5f0b 1c3d 5c57 87bd ef78 83bd df11 6bbd
000001d0: beeb 693d 9b42 ebbd c843 0e3e fa0e 0f3e
000001e0: 2259 32bd 7e7a f4bc d683 1fbe 08b3 2fbd
000001f0: a511 bbbc 6e8c cbbd 4c6c 873d bbfa 13be
00000200: 5fb1 d83c c556 a0ba 0d6c 10be f0b0 e6bd
00000210: cbc7 43bd 7b03 263e 443b 573d 395b b2bc
00000220: 11c2 093d 63bf 29bd 6692 933d 404b 513d
00000230: 9170 053e d7d5 d7bd 4457 85bb 2951 18be
00000240: ec2a 9a3b 54e9 31be d4a2 2d3d e64c eebd
00000250: df3b a3bd 32e8 9e3d 2cb0 a53d 96b5 53bd
00000260: 8715 8e3b 525f 053e 0854 793d 5063 743d
00000270: bb56 4ebd 4511 e3bd 677c 0c3e c33a 4bbd
00000280: a46b 663c 2833 84bd 17fc dfbd 3c6f 9b3d
00000290: 049b 63bd 12cb 08bd ec69 823d bcfd 773d
000002a0: b961 35bd cf91 e03c e77d fdbd d06d 8c3d
000002b0: 0d79 9bbc f95e 0dbd d72d 0bbe 9ad7 093c
000002c0: b1f4 3b3d c6bc 713d a968 c73d a27f d93d
000002d0: 5666 3c3d 4b43 6ebc c003 893d c036 733d
000002e0: 3f26 92bd 7971 cc3d ab2b a2bd 302e d1bc
000002f0: 5e43 263e 4712 c43d f0e4 9cbd 4be7 a73d
00000300: de39 05bd 7533 50bd 9810 163e 680c 453d
00000310: 027a 0f3c cc8a 593d df01 c5bd 1238 01be
00000320: ca11 ed3c bd7b 193c 329f 9a3d 4127 9bbc
00000330: 9b77 1fbe 3210 d23d c1c6 51bd e847 86bd
00000340: f71f 01bd 8513 ebbd 26d0 14bd 94b2 e53d
00000350: f134 ad3d 6989 093e e605 87bd 75d3 6a3d
00000360: 79a3 973d 0bbb 9f3d 68bf ca3d c789 ecbd
00000370: 734e 87bd 6d48 b43d aa0f 5e3d 815e 80bd
00000380: 242b abbc 8d4a 03be 9d6f 32bd b467 9cbd
00000390: bd7b 1fbd 242e d038 83ec c8bd 4963 283a
000003a0: 95d3 073e dfa2 10bd 7e18 943d f19f 03be
000003b0: 5bf9 dbbc c346 1cbe 2cec 3c3e c5d7 5bbc
000003c0: 52db 59b9 bf27 73be 6bad 80bd 6d26 35be
000003d0: 7b2a 933d caf3 f1bd dee0 8c3d a510 383d
000003e0: 71d6 7cbd 1fca eb3c fe75 593e 4e51 153e
000003f0: 29cf 893d bfc7 ecbd 5842 a2bd 430f 613e

lstm.weight_hh_l1 f4 [256, 64]
-0.15548912 0.06860384 -0.12869087 -0.1437021 0.08606456 -0.1660177 -0.06296333 0.02911772
-0.098655775 -0.06365654 -0.044377033 0.040770527 -0.12019984 0.09411482 0.16656691 0.059462547
0.021919742 -0.03011542 -0.14964779 0.11993685 0.099063255 0.06779501 -0.026168851 -0.10357929
0.062426176 0.17716552 -0.15749158 0.12997472 -0.07486234 -0.07850066 0.04043138 -0.12108474
-0.0015158213 0.025518619 0.16245177 -0.1169102 -0.124171205 -0.033658914 0.06378572 0.07719175
0.09858487 -0.12434293 -0.07611635 0.012214966 -0.12725194 -0.04494671 -0.1827888 -0.10842774
0.028597392 0.049393605 -0.05283861 0.09805746 0.06288152 -0.021265015 0.035444252 -0.04023361
-0.013679206 0.035059668 0.06262796 0.10241356 -0.07490203 -0.0024858087 0.0141336005 -0.07525667
-0.13703357 0.075254016 0.08875255 0.0015745754 -0.0444254 0.10231719 0.10125881 -0.17379344
0.009657643 -0.12706906 -0.015882267 0.13157812 -0.06604252 -0.10445203 -0.04706567 0.0020952441
0.1588222 0.015881944 0.12112327 0.059137337 0.029141009 -0.09934866 -0.096704856 0.099147275
0.017305916 -0.14828451 0.06531857 -0.123329386 0.006200062 0.15251501 0.031119859 -0.0049503013
-0.056571268 -0.023950953 -0.033317376 -0.040883183 0.084451154 -0.094717234 0.057669677 0.0048335316
0.056249402 -0.018299568 0.18661198 -0.13286439 0.012437044 0.023450188 0.0253675 0.13307413
-0.04074778 0.12865466 -0.0029744613 0.06315835 0.0005585839 -0.030449172 -0.017965065 -0.09831723
-0.004168883 -0.027399534 0.09976236 0.067561366 0.007516808 -0.03235103 0.081134565 -0.07441148
-0.057187956 -0.033714376 0.04046612 -0.060687747 0.15544209 0.021557052 0.030850818 0.05654547
-0.08951352 -0.023187093 0.14802898 -0.13281253 -0.0506491 -0.043920103 -0.07504416 0.057760365
-0.11353463 -0.035321604 -0.12662424 0.1106445 0.0298781 0.07842199 -0.031148646 -0.10272285
0.07175478 0.14850934 -0.04590537 -0.061813526 0.13316007 -0.13096288 -0.060428586 0.03533658
0.035128325 0.039996758 0.10956075 0.0026711645 0.15900743 0.056713607 -0.02154754 0.09593855
-0.089506894 -0.071134396 0.019248325 0.028186537 0.09573991 0.01019963 -0.054223053 -0.055462614
-0.0840675 -0.0884477 0.13082458 -0.024648411 0.057538107 0.061091624 0.17665708 -0.0017405264
0.0067884685 -0.11856849 -0.06529695 -0.029011276 -0.13751027 0.0396462 -0.017728092 0.11667582
0.027837008 -0.080708474 -0.123653136 -0.07195414 -0.019866643 0.03763951 0.10129416 0.08946868
0.13458548 0.084568694 0.05206576 0.027538598 0.06234725 -0.049253136 -0.113073364 0.028789096
0.15212297 -0.0609321 0.10539251 -0.042181544 -0.13458359 0.07351586 -0.11898581 0.03510918
0.14599878 0.0661936 -0.01088164 -0.11794198 0.14913748 -0.015699785 0.048618417 -0.0029121402
-0.149965 -0.14850186 0.07213262 -0.11765402 -0.109752454 0.09091375 0.018740142 0.0638281
-0.11919962 -0.030274156 0.05240444 0.059032828 0.10957201 0.03862731 0.10675162 0.03837053
0.032420076 -0.048388295 -0.05975972 0.047411937 0.113892026 0.09670713 0.097233966 0.050579503
-0.13768646 -0.04303217 0.065175064 0.08997931 0.0030469934 -0.07493725 0.09798037 -0.016196573
00000000: 8a38 1fbe 2c80 8c3d 8ac7 03be a526 13be
00000010: 9e42 b03d 8b00 2abe ebf2 80bd 4988 ee3c
00000020: 0a0c cabd 5c5e 82bd b1c4 35bd fffe 263d
00000030: 552b f6bd 45bf c03d 8490 2a3e 008f 733d
00000040: 0891 b33c 9db4 f6bc 453d 19be 74a1 f53d
00000050: ade1 ca3d 1cd8 8a3d 0f60 d6bc 6121 d4bd
00000060: 97b2 7f3d e16a 353e 7945 21be 1818 053e
00000070: 6d51 99bd f4c4 a0bd 609b 253d 47fb f7bd
00000080: 86ae c6ba 6c0c d13c c259 263e 9d6e efbd
00000090: 794d febd eedd 09bd 16a2 823d b516 9e3d
000000a0: dde6 c93d 82a7 febd e4e2 9bbd 4821 483c
000000b0: 554e 02be 0b1a 38bd fd2c 3bbe 5d0f debd
000000c0: 1445 ea3c f350 4a3d 4c6d 58bd 59d2 c83d
000000d0: 07c8 803d f833 aebc fe2d 113d ffcb 24bd
000000e0: c01e 60bc ba9a 0f3d 1743 803d 33be d13d
000000f0: 3c66 99bd f3e8 22bb 9e90 673c 2b20 9abd
00000100: 8752 0cbe c71e 9a3d e6c3 b53d fc61 ce3a
00000110: 69f7 35bd ad8b d13d c760 cf3d e8f6 31be
00000120: 173b 1e3c 641e 02be 871b 82bc 6abc 063e
00000130: 4d41 87bd f2ea d5bd efc7 40bd 5d50 093b
00000140: 49a2 223e da1a 823c 7a0f f83d fe39 723d
00000150: 20b9 ee3c 4f77 cbbd 320d c6bd ba0d cb3d
00000160: 23c5 8d3c e5d7 17be bec5 853d 1e94 fcbd
00000170: e429 cb3b e52c 1c3e 13ef fe3c 2336 a2bb
00000180: 46b7 67bd ca34 c4bc cd77 08bd 2075 27bd
00000190: baf4 ac3d 1cfb c1bd 0a37 6c3d 9a62 9e3b
000001a0: c665 663d fae8 95bc 3617 3f3e 9a0d 08be
000001b0: bec4 4b3c 9c1a c03c 81cf cf3c 9644 083e
000001c0: 25e7 26bd 0cbe 033e 2eef 42bb 2a59 813d
000001d0: ee6d 123a 8b70 f9bc 792b 93bc 8b5a c9bd
000001e0: 209b 88bb fd74 e0bc 3550 cc3d 9d5d 8a3d
000001f0: 8e4f f63b 8382 04bd e129 a63d 0c65 98bd
00000200: eb3d 6abd 1618 0abd cdbf 253d b793 78bd
00000210: 362c 1f3e 6a98 b03c dbba fc3c 399c 673d
00000220: dd52 b7bd dcf2 bdbc e994 173e 0200 08be
00000230: 6e75 4fbd 91e5 33bd c1b0 99bd 2296 6c3d
00000240: d884 e8bd 63ad 10bd c9a9 01be 9599 e23d
00000250: ebc2 f43c b59b a03d 722b ffbc 5c60 d2bd
00000260: 2cf4 923d d512 183e 4507 3cbd 2e30 7dbd
00000270: 1d5b 083e 221b 06be f783 77bd 17bd 103d
00000280: b8e2 0f3d a4d3 233d 6361 e03d b40e 2f3b
00000290: d8d2 223e 874c 683d 7784 b0bc 6e7b c43d
000002a0: 644f b7bd e9ae 91bd aaae 9d3c 74e7 e63c
000002b0: 4913 c43d 591c 273c fe18 5ebd c42c 63bd
000002c0: 952b acbd 1124 b5bd e1f6 053e 77eb c9bc
000002d0: 14ad 6b3d 363b 7a3d 98e5 343e 6022 e4ba
000002e0: cd71 de3b 09d4 f2bd 68ba 85bd 0ea9 edbc
000002f0: 7ecf 0cbe 0e64 223d 813a 91bc bbf3 ee3d
00000300: 700a e43c 7c4a a5bd db3d fdbd b15c 93bd
00000310: 5fbf a2bc e32b 1a3d 5073 cf3d 5b3b b73d
00000320: c7d0 093e 5a32 ad3d e842 553d a098 e13c
00000330: d45f 7f3d a8bd 49bd 0293 e7bd 1cd7 eb3c
00000340: 20c6 1b3e f093 79bd 07d8 d73d 8ec6 2cbd
00000350: 48d0 09be 7c8f 963d d5ae f3bd a5ce 0f3d
00000360: b480 153e 8390 873d e848 32bc 918b f1bd
00000370: 7fb7 183e d69c 80bc 1b24 473d 9bd9 3ebb
00000380: 6d90 19be df10 18be 44ba 933d 97f4 f0bd
00000390: e5c5 e0bd fd30 ba3d ed84 993c 4fb8 823d
000003a0: ee1e f4bd 8201 f8bc 0aa6 563d 68cc 713d
000003b0: 4a67 e03d ac37 1e3d 98a0 da3d 6b2a 1d3d
000003c0: eaca 043d ce32 46bd 9cc6 74bd 0533 423d
000003d0: 3940 e93d 630e c63d 9a22 c73d 742c 4f3d
000003e0: aefd 0cbe 8042 30bd 817a 853d 1347 b83d
000003f0: 11b0 473b b378 99bd efa9 c83d adae 84bc

lstm.bias_ih_l1 f4 [256]
0.042886462 -0.10982662 0.031048695 0.08475342 -0.024005957 0.07314339 0.015970025 -0.1232768
-0.053181853 0.047569934 -0.1264877 0.14754128 0.10128421 0.18496647 -0.036169842 0.13007462
-0.053089272 0.081227206 0.08435215 -0.038478278 0.00060154335 -0.0012924325 0.011141031 0.10883469
0.045719482 0.02010392 -0.026736205 0.03570622 -0.025684515 0.15258002 0.008736831 0.09915478
0.0010049859 0.043892823 0.11437511 0.15249863 0.025882062 0.16035365 -0.048833434 -0.068199955
0.027411498 0.11732962 0.00751502 -0.123789005 0.11178281 -0.17066093 0.13446403 0.010250369
0.15981106 0.05013128 0.101257496 0.049404968 -0.14624098 -0.060049962 -0.07203195 -0.026163185
-0.029464561 0.050812792 -0.07154705 -0.051893916 0.040044222 0.0051262104 0.02849947 -0.10293868
-0.020530747 -0.03413966 -0.03687698 0.0023082606 -0.08431214 -0.086893015 0.014323783 0.13163623
0.117685 0.0041827764 -0.038238145 0.05226045 -0.086018324 -0.059486024 0.003134168 0.05349396
-0.026044564 0.040062148 0.0069394317 -0.008067842 0.06095429 0.07997832 -0.038055774 0.014633078
-0.10003924 -0.045190196 -0.087612435 -0.06568686 -0.13262248 0.027495144 -0.04062759 0.020106332
0.124632016 0.04284735 0.017624434 0.07533526 -0.043494463 0.025884576 0.058144864 0.14393665
0.11877579 -0.06871792 0.109125406 0.07291133 0.04350151 -0.06473006 0.10193546 -0.054506283
-0.09514021 -0.12731792 0.12815838 0.13720162 -0.014675399 0.06981043 0.093943305 -0.119003594
-0.06906434 -0.04479013 0.028743712 -0.011947094 0.12742786 -0.05060579 -0.02549883 0.021389553
-0.031359386 -0.024186298 -0.06870741 0.09508161 0.036283053 0.01769805 0.00891144 0.11811386
0.010535606 -0.061497472 -0.06944355 0.08112127 -0.06046475 0.039094556 -0.0533278 0.028291637
0.06339482 0.09736829 -0.007300636 -0.05080862 -0.012851607 -0.045270912 0.033772413 -0.024867637
0.00038844734 0.10028688 -0.08906842 0.12350455 0.074410826 -0.07143322 0.07818077 -0.028072879
-0.12509805 -0.027204495 -0.0076221144 -0.094394 0.0010810932 0.057688393 -0.10638155 0.08320199
0.014532106 0.1469743 0.109465204 0.0115024205 -0.045559503 -0.13585488 -0.05251039 0.026669316
0.09263262 0.09677398 0.030262217 -0.01470442 0.033343777 0.05460969 0.11593199 0.0965505
-0.090457544 -0.06710975 -0.014462016 -0.020084951 -0.12491972 0.09228937 0.11635689 0.1347969
0.09020957 0.18940264 -0.005264957 -0.016656822 0.012143569 0.06791434 0.07973055 -0.0057828813
0.026552213 -0.045124475 0.0324861 0.10318453 0.006554581 -0.08070413 -0.05511862 -0.018150881
0.14339474 0.11523889 -0.07481135 0.008133702 0.074004225 -0.064230725 0.0040234625 0.028908998
0.047957152 -0.010043902 0.06713459 0.05729163 -0.18166193 -0.0012502396 -0.03966557 0.0785649
0.04176895 -0.024055816 -0.0254292 0.09035403 0.07716742 0.022523718 0.15654804 0.04875641
-0.120467894 0.03594358 0.041050658 -0.06788837 0.0035647776 -0.04827928 -0.06392292 0.13028073
0.094295494 -0.10583036 0.025523677 0.07760537 -0.0025726513 0.027095107 0.012516411 -0.01319061
-0.10686134 0.10916049 0.16360514 0.07787235 -0.02006247 -0.022510596 0.07426946 0.062729135
00000000: b7a9 2f3d c7ec e0bd d559 fe3c 3393 ad3d
00000010: 24a8 c4bc 34cc 953d 92d3 823c 8c78 fcbd
00000020: 37d5 59bd b1d8 423d fe85 01be 1015 173e
00000030: 196e cf3d da67 3d3e d426 14bd 4832 053e
00000040: 2374 59bd 735a a63d d2c0 ac3d 669b 1dbd
00000050: e4b0 1d3a d766 a9ba df88 363c b9e4 de3d
00000060: 5a44 3b3d fab0 a43c e305 dbbc af40 123d
00000070: 5568 d2bc f03d 1c3e ed24 0f3c a911 cb3d
00000080: bbb9 833a f6c8 333d 7f3d ea3d 9a28 1c3e
00000090: 9e06 d43c bf33 243e 9105 48bd 6bac 8bbd
000000a0: 148e e03c 834a f03d 8f40 f63b 1785 fdbd
000000b0: 63ee e43d bdc1 2ebe f0b0 093e 2af1 273c
000000c0: 83a5 233e 7556 4d3d 1760 cf3d dd5c 4a3d
000000d0: 32c0 15be f3f6 75bd 7d85 93bd 2d54 d6bc
000000e0: aa5f f1bc 1321 503d 4287 92bd b78e 54bd
000000f0: 6905 243d c5f9 a73b b877 e93c 84d1 d2bd
00000100: 1930 a8bc 07d6 0bbd 510c 17bd 3046 173b
00000110: d8ab acbd f7f4 b1bd 4dae 6a3c a6cb 063e
00000120: d504 f13d ac0f 893b 9a9f 1cbd 0e0f 563d
00000130: 602a b0bd 9ea7 73bd 9d66 4d3b 7c1c 5b3d
00000140: 695b d5bc 3518 243d 2c64 e33b fb2e 04bc
00000150: 35ab 793d accb a33d 5fe0 1bbd 94bf 6f3c
00000160: 60e1 ccbd 5b19 39bd 266e b3bd d586 86bd
00000170: 30ce 07be 7f3d e13c 1e69 26bd 09b6 a43c
00000180: 123f ff3d b480 2f3d 1e61 903c 5f49 9a3d
00000190: 4027 32bd e40b d43c 4f29 6e3d 2164 133e
000001a0: b940 f33d fbbb 8cbd 247d df3d 8952 953d
000001b0: a42e 323d 3291 84bd 8ac3 d03d fb41 5fbd
000001c0: dfd8 c2bd a15f 02be f33b 033e 957e 0c3e
000001d0: 1671 70bc c5f8 8e3d 5965 c03d 28b8 f3bd
000001e0: 9b71 8dbd db75 37bd ef77 eb3c bfbd 43bc
000001f0: 737c 023e 0448 4fbd ece2 d0bc 2539 af3c
00000200: b372 00bd 5822 c6bc 78b6 8cbd 26ba c23d
00000210: 8a9d 143d 80fb 903c 4a01 123c aee5 f13d
00000220: 899d 2c3c c6e4 7bbd 6c38 8ebd e922 a63d
00000230: e3a9 77bd 9d21 203d 406e 5abd ddc3 e73c
00000240: 25d5 813d 0769 c73d 2c3a efbb b31c 50bd
00000250: 8c8f 52bc fe6d 39bd f154 0a3d 37b7 cbbc
00000260: 85a8 cb39 3563 cd3d 8169 b6bd f4ef fc3d
00000270: b464 983d 944b 92bd 3d1d a03d 18f9 e5bc
00000280: b419 00be f6db debc eec2 f9bb a451 c1bd
00000290: 78b3 8d3a aa4a 6c3d 92de d9bd ce65 aa3d
000002a0: 1218 6e3c 6e80 163e 4b2f e03d a674 3c3c
000002b0: 9a9c 3abd 8b1d 0bbe 2215 57bd 9c79 da3c
000002c0: 2cb6 bd3d 7031 c63d 78e8 f73c cfea 70bc
000002d0: 7c93 083d 69ae 5f3d c06d ed3d 45bc c53d
000002e0: ce41 b9bd d670 89bd 17f2 6cbc 3289 a4bc
000002f0: e9d5 ffbd 3602 bd3d 854c ee3d 3308 0a3e
00000300: ccbf b83d c4f2 413e a985 acbb e373 88bc
00000310: d2f5 463c ac16 8b3d c549 a33d 537e bdbb
00000320: 0784 d93c 71d4 38bd 2510 053d 6952 d33d
00000330: d0c7 d63b 3548 a5bd 10c4 61bd 28b1 94bc
00000340: 12d6 123e 5e02 ec3d b136 99bd 3843 053c
00000350: 878f 973d 668b 83bd 40d7 833b 90d2 ec3c
00000360: b86e 443d 2e8f 24bc dc7d 893d a1aa 6a3d
00000370: 9605 3abe 14df a3ba 5d78 22bd a2e6 a03d
00000380: eb15 2b3d b410 c5bc e650 d0bc 890b b93d
00000390: f409 9e3d a983 b83c 214e 203e cdb4 473d
000003a0: dfb7 f6bd 9339 133d bc24 283d 0f09 8bbd
000003b0: 0b9f 693b 7fc0 45bd 05ea 82bd 5068 053e
000003c0: ff1d c13d 96bd d8bd 0817 d13c 90ef 9e3d
000003d0: ed99 28bb 8ff6 dd3c a211 4d3c 6e1d 58bc
000003e0: 1eda dabd 898f df3d 1b88 273e 8a7b 9f3d
000003f0: 0d5a a4bc 2468 b8bc 961a 983d 2278 803d
